best_policy-66.model (torch_old, 419465 bytes, 15 tensors)

conv1.weight f4 [32, 4, 3, 3]
0.18524268 0.038117677 0.03581626 0.0318439 0.0887313 -0.19796975 0.22064075 0.22562788
0.14081052 -0.065895095 0.005867419 0.12686013 -0.12213758 0.12948762 -0.115212105 0.13477533
0.052297775 0.21693985 -0.20437233 0.031134885 0.009038012 -0.093757495 -0.0004960977 -0.0417072
0.11308325 0.13490137 -0.06441342 -0.14582893 -0.21867482 -0.11338033 -0.055419374 -0.14838669
-0.054211862 -0.12902996 -0.2064121 0.0280727 0.20142278 0.30115533 -0.07838368 -0.081963494
0.32910413 -0.20252264 0.019451478 -0.10312586 0.05281867 -0.14032082 -0.27072743 0.028612768
0.073414795 -0.09577043 0.09275275 0.106291294 -0.41099432 -0.18721095 0.09425548 -0.16213246
-0.0345247 -0.18168904 -0.17033659 0.010966336 -0.034464825 -0.19427429 0.04384331 -0.04618327
0.021636847 -0.05467312 -0.032038007 0.068899415 0.017794205 -0.0016792137 0.012914852 -0.12684895
-0.4949133 -0.0045950115 -0.20666666 -0.057709713 0.15693356 -0.055810962 0.03502206 0.5377163
-0.47736344 -0.024726931 0.018044919 -0.06321274 -0.3769348 -0.27992913 0.30641878 0.015601139
-0.07701406 0.021764195 0.035596557 0.07869309 0.003805329 -0.09529978 0.16211691 -0.026046483
-0.024617542 -0.09349765 0.016347218 0.14995883 -0.029613767 -0.13253284 0.09171686 -0.08442519
-0.068318486 0.108786866 -0.15862718 0.07984118 0.100473285 0.057191804 -0.19883606 -0.43747422
-0.17132953 -0.3937255 -0.021078197 0.013355845 -0.498347 0.09944722 0.21561353 0.24382152
-0.37001765 0.102717094 0.1602385 0.058733527 0.22686492 0.054779146 -0.310897 0.024542311
-0.001980276 0.2523812 0.06781157 -0.010602763 0.07486782 -0.25422063 -0.055335723 -0.17991117
-0.0372473 -0.15144426 -0.057754256 0.15507463 0.102258675 0.13223287 0.14371209 -0.12619363
-0.11571545 0.08674546 -0.3121188 -0.14039542 -0.08780872 0.16063151 -0.4914942 -0.26911312
0.45482028 -0.1754254 0.010924298 0.018033236 0.010098175 -0.05271531 -0.43251795 0.18940254
0.09264189 -0.26843575 0.22409919 0.17146148 -0.042169165 -0.24471955 0.04315553 -0.17880777
0.0018430818 0.053372674 -0.12017103 0.12804903 -0.14202362 -0.079650894 0.15724511 -0.01527261
0.17497818 -0.1541007 0.08223252 -0.19335341 0.027634481 -0.14180744 0.011910288 -0.26184666
0.27213106 0.18293509 -0.058709122 -0.21873431 -0.4079488 0.24089974 -0.1968099 0.008117413
-0.20680727 0.22853269 0.17873271 -0.24478483 -0.22224835 -0.030382516 -0.12017623 0.15303133
0.0515406 0.15618682 -0.17797093 -0.010225516 0.011940274 0.24041747 -0.114248395 0.08246362
-0.04628671 0.05343476 -0.10630306 0.04797345 -0.12729639 0.13013247 -0.06036058 -0.055162314
0.1280751 -0.056648694 -0.113119364 -0.058938958 -0.19505067 0.013922064 0.2862755 0.15709202
-0.040254943 0.17432192 -0.23433727 0.32034823 -0.59890014 0.042583574 -0.16562897 0.07024976
-0.39973295 0.3076843 0.046280265 -0.03777695 -0.12838173 -0.15628204 -0.11877903 0.09325894
0.07175167 -0.11652472 -0.0649281 -0.18046936 -0.20242935 -0.24099484 -0.13284421 -0.18727571
-0.14863013 -0.13111258 -0.040077128 -0.054585066 0.22136566 -0.27738532 0.40088552 0.27199057
00000000: 42b0 3d3e 4821 1c3d 12b4 123d c06e 023d
00000010: c1b8 b53d 95b8 4abe a6ef 613e ff0a 673e
00000020: a230 103e 02f4 86bd 7a43 c03b 9fe7 013e
00000030: 4423 fabd 6798 043e 53f4 ebbd 8b02 0a3e
00000040: 3136 563d 7b25 5e3e fb46 51be 960e ff3c
00000050: 2b14 143c ee03 c0bd 8e0c 02ba 2bd5 2abd
00000060: 3198 e73d 9623 0a3e 2feb 83bd 2e54 15be
00000070: 4bec 5fbe f233 e8bd 6dff 62bd aef2 17be
00000080: 420d 5ebd 6e20 04be b25d 53be b8f8 e53c
00000090: c641 4e3e 0831 9a3e 9f87 a0bd 7adc a7bd
000000a0: 5680 a83e 1862 4fbe b558 9f3c a733 d3bd
000000b0: 6458 583d 43b0 0fbe c99c 8abe 5365 ea3c
000000c0: 7f5a 963d 4a23 c4bd 27f5 bd3d 40af d93d
000000d0: d96d d2be 3ab4 3fbe 0409 c13d 0d06 26be
000000e0: c669 0dbd b10c 3abe b76c 2ebe 26ac 333c
000000f0: fd2a 0dbd d7ef 46be 0b95 333d ab2a 3dbd
00000100: c23f b13c ecf0 5fbd 493a 03bd 231b 8d3d
00000110: 27c5 913c 1019 dcba d198 533c b1e4 01be
00000120: 4765 fdbe c091 96bb 6da0 53be 0561 6cbd
00000130: 31b3 203e 099a 64bd 4b73 0f3d c7a7 093f
00000140: fb68 f4be 2290 cabc f0d2 933c ae75 81bd
00000150: 99fd c0be df52 8fbe ece2 9c3e eb9b 7f3c
00000160: 8cb9 9dbd d34a b23c b2cd 113d d829 a13d
00000170: d462 793b 882c c3bd fa01 263e 6f5f d5bc
00000180: baaa c9bc b27b bfbd 9aea 853c cf8e 193e
00000190: 9298 f2bc b0b6 07be 0dd6 bb3d 1de7 acbd
000001a0: 90ea 8bbd a6cb de3d 2a6f 22be c683 a33d
000001b0: f0c4 cd3d f441 6a3d ae9b 4bbe 9ffc dfbe
000001c0: 0271 2fbe 6496 c9be 2fac acbc 79d2 5a3c
000001d0: 5727 ffbe fcaa cb3d cbc9 5c3e 59ac 793e
000001e0: f472 bdbe 575d d23d 9015 243e 9192 703d
000001f0: 474f 683e 1960 603d e42d 9fbe f50c c93c
00000200: 85c7 01bb 1c38 813e cbe0 8a3d 36b7 2dbc
00000210: 4d54 993d 3529 82be b6a7 62bd a23a 38be
00000220: a090 18bd 3414 1bbe ba8f 6cbd e2cb 1e3e
00000230: ff6c d13d 0e68 073e 4329 133e e738 01be
00000240: 39fc ecbd 9ba7 b13d 09ce 9fbe d1c3 0fbe
00000250: 0fd5 b3bd 967c 243e 21a5 fbbe 32c9 89be
00000260: 34de e83e b7a2 33be d4fb 323c 70ba 933c
00000270: d172 253c 02ec 57bd fe72 ddbe bdf2 413e
00000280: 08bb bd3d 6970 89be 427a 653e 9993 2f3e
00000290: 93b9 2cbd c397 7abe dac3 303d 6219 37be
000002a0: 9093 f13a 4e9d 5a3d 3b1c f6bd 491f 033e
000002b0: a46e 11be 0220 a3bd dd04 213e f839 7abc
000002c0: 7b2d 333e 93cc 1dbe 8669 a83d 70fe 45be
000002d0: b561 e23c f835 11be 5e23 433c c410 86be
000002e0: c354 8b3e 5653 3b3e fa78 70bd e3fb 5fbe
000002f0: aade d0be 6cae 763e 8988 49be e6fe 043c
00000300: 49c5 53be 7904 6a3e b505 373e e0a8 7abe
00000310: 1295 63be c1e4 f8bc f51e f6bd 3fb4 1c3e
00000320: 3c1c 533d 70ef 1f3e 033e 36be ec88 27bc
00000330: 24a1 433c ff2f 763e 10fb e9bd b0e2 a83d
00000340: 2297 3dbd 68de 5a3d 6bb5 d9bd cf7f 443d
00000350: fc59 02be 7241 053e a83c 77bd e1f1 61bd
00000360: 1e26 033e 7608 68bd 20ab e7bd fa69 71bd
00000370: 5dbb 47be 5e19 643c b492 923e bbdc 203e
00000380: 5ee2 24bd 7281 323e 1cf6 6fbe af04 a43e
00000390: 8551 19bf 1d6c 2e3d a49a 29be 1bdf 8f3d
000003a0: cca9 ccbe cc88 9d3e 6090 3d3d 01bc 1abd
000003b0: 8076 03be 6608 20be 6c42 f3bd 8bfe be3d
000003c0: 8af2 923d 83a4 eebd 06f9 84bd f6cc 38be
000003d0: a449 4fbe 5ac7 76be 5008 08be 34c5 3fbe
000003e0: 7f32 18be 6042 06be ea27 24bd 9794 5fbd
000003f0: aead 623e 7305 8ebe de40 cd3e 5942 8b3e

conv1.bias f4 [32]
-0.18220864 0.0035245176 -0.0541639 0.079796985 0.09086299 0.14623265 -0.07576046 -0.03964503
-0.04668666 0.18119937 0.06418755 -0.2029003 -0.052219618 -0.15903628 0.037310544 -0.1782128
0.028427433 0.0030893805 0.09504692 -0.045960434 -0.003582048 -0.19006373 0.067851104 -0.15636714
-0.07005567 -0.22438283 -0.10492257 -0.08253794 0.017299252 -0.1290494 -0.0018816261 -0.15091164
00000000: e794 3abe 98fb 663b f7da 5dbd 9a6c a33d
00000010: 6016 ba3d 03be 153e 4d28 9bbd d462 22bd
00000020: 833a 3fbd 548c 393e c374 833d 19c5 4fbe
00000030: 3de4 55bd 68da 22be f1d2 183d 6b7d 36be
00000040: a6e0 e83c 3477 4a3b f6a7 c23d 0241 3cbd
00000050: cbc0 6abb 11a0 42be 85f5 8a3d b51e 20be
00000060: 5979 8fbd 9dc4 65be a5e1 d6bd a709 a9bd
00000070: 29b7 8d3c 8725 04be e5a0 f6ba 9588 1abe

conv2.weight f4 [64, 32, 3, 3]
-0.024930164 0.0146198245 0.053934097 -0.047012538 -0.14652513 -0.05718111 0.06515908 0.064655006
0.249156 0.0032510252 0.053506117 0.039218634 -0.01383128 0.020075614 -0.014082651 -0.069219165
0.014919692 0.043267116 -0.05377341 -0.043348987 -0.14966865 -0.03884774 0.03677664 -0.051762674
0.051862117 0.039353885 0.11539825 -0.1770556 0.027103543 -0.10721791 -0.06686151 0.041792616
0.06613061 -0.049301483 0.005105231 -0.009290234 -0.064814776 -0.06516098 0.07034078 -0.021330712
-0.06185557 0.13045515 -0.0003853005 -0.20560318 -0.010190257 -0.06801557 -0.021192554 -0.100402825
-0.2916439 0.018216902 -0.02875354 -0.20112553 -0.13897066 0.0023693498 -0.09272025 0.0039934227
0.010420055 -0.2118113 -0.15605001 -0.17284234 -0.07063888 -0.011073424 0.24458848 -0.008020358
0.07312454 0.105978444 -0.061305918 -0.04495628 -0.061182078 -0.08333034 -0.011538341 0.009515814
-0.04504247 -0.074114986 0.05600041 -0.0034117708 0.09101157 0.012083753 -0.14534305 0.091755226
0.12696768 -0.25197133 0.12100214 -0.03192063 -0.2029112 0.12084395 -0.047471475 -0.056839973
0.117248975 0.020403376 -0.047199532 0.043789532 0.1308697 -0.0097237 0.030338602 0.029864058
-0.04434251 0.026069261 0.09967799 -0.054829992 0.031081168 -0.025601761 -0.0509131 0.04308001
-0.059382323 0.0345571 0.08029877 0.029425036 0.0029682925 0.13318999 0.09071757 0.041498847
-0.039404992 -0.028246285 -0.028755516 0.050385814 0.11282755 0.024848003 -0.0934897 0.009217923
0.025575237 -0.11071157 0.10479583 0.16844043 -0.1125643 0.13699482 -0.05198765 -0.15098277
-0.008037561 -0.0631424 -0.051725443 0.11082939 -0.041095253 -0.08384505 -0.0657955 -0.058986995
-0.16338 -0.054440357 -0.0090312855 0.12836584 -0.027079772 0.10728562 -0.047213465 -0.09123465
0.007486667 0.051093295 0.1301802 -0.13826689 0.02197357 -0.03282391 -0.0087368535 0.22723563
0.18728349 -0.07943196 -0.16346207 -0.13988832 -0.033193458 -0.0704889 0.1745675 -0.008478054
0.13578722 -0.10594933 0.0008892107 0.07560453 0.034206394 0.07356873 -0.029449726 0.13601947
-0.05136768 0.0010811142 -0.059813797 -0.039373517 0.047971144 -0.10671853 0.035559114 -0.09678524
-0.02579366 -0.0983226 -0.06632371 0.07978436 -0.10370347 0.008326726 -0.08527268 -0.053394876
-0.094985984 -0.1777111 -0.04274002 -0.15224455 0.037742466 -0.025210062 -0.014811516 0.030457279
-0.042077824 0.00434113 0.13706775 0.005024345 0.07106267 0.034788553 -0.032590784 -0.0767024
-0.19196436 0.061998423 -0.013922645 0.041998133 0.0003754938 0.074805684 0.02478407 -0.1288617
-0.17186944 -0.12567814 -0.028428683 -0.04338767 -0.08441027 0.052717082 -0.0023650806 0.04881657
-0.012691264 0.09985527 0.12957583 -0.04787103 -0.19665521 0.034369364 -0.06487546 -0.15235183
0.04556911 0.06248539 0.14490382 -0.11531382 -0.116092086 -0.089402296 -0.082201086 0.08978359
0.0718419 0.04369978 -0.21555473 0.061745156 0.02279565 -0.12745143 -0.11957175 -0.041584164
-0.017518599 -0.0025359588 -0.12497058 -0.15635331 0.024375254 0.14295591 -0.06790774 0.02186941
0.10626265 -0.047238246 0.017764486 0.21316347 0.03960641 -0.18998286 0.1589776 -0.17681372
00000000: 583a ccbc fd87 6f3c 00ea 5c3d 3890 40bd
00000010: af0a 16be bd36 6abd 2072 853d d869 843d
00000020: c022 7f3e 270f 553b 3b29 5b3d b8a3 203d
00000030: 989c 62bc 9d75 a43c ebba 66bc c7c2 8dbd
00000040: b971 743c dc38 313d 8241 5cbd b58e 31bd
00000050: bd42 19be cf1e 1fbd 1aa3 163d 1905 54bd
00000060: 5f6d 543d 8a31 213d eb55 ec3d 104e 35be
00000070: 4008 de3c 1095 dbbd b0ee 88bd bc2e 2b3d
00000080: 7c6f 873d 5af0 49bd c849 a73b 1136 18bc
00000090: 9cbd 84bd 1f73 85bd d40e 903d bfbd aebc
000000a0: 445c 7dbd 0996 053e 2802 cab9 a489 52be
000000b0: 09f5 26bc bf4b 8bbd 029c adbc ff9f cdbd
000000c0: 5952 95be 9d3b 953c 8b8c ebbc daf3 4dbe
000000d0: 534e 0ebe 1847 1b3b 1de4 bdbd 42db 823b
000000e0: e1b8 2a3c 10e5 58be 93cb 1fbe 95fd 30be
000000f0: 1eab 90bd 4e6d 35bc 6775 7a3e d267 03bc
00000100: 52c2 953d 3a0b d93d ea1b 7bbd 1424 38bd
00000110: 0f9a 7abd 19a9 aabd 4f0b 3dbc 37e8 1b3c
00000120: 747e 38bd 99c9 97bd b060 653d 0498 5fbb
00000130: 4664 ba3d effa 453c cfd4 14be 2aea bb3d
00000140: d103 023e 6302 81be f8cf f73d 35bf 02bd
00000150: f4c7 4fbe 087d f73d 7371 42bd 08d1 68bd
00000160: 3b20 f03d fb24 a73c 4c54 41bd a75c 333d
00000170: b502 063e 2750 1fbc a988 f83c 78a5 f43c
00000180: 7ea0 35bd 348f d53c f923 cc3d 6a95 60bd
00000190: ef9d fe3c c9ba d1bc 418a 50bd aa74 303d
000001a0: e13a 73bd bf8b 0d3d ae73 a43d c60c f13c
000001b0: af87 423b f562 083e 22ca b93d b2fa 293d
000001c0: 2167 21bd c164 e7bc b090 ebbc 5b61 4e3d
000001d0: 2112 e73d 0a8e cb3c 8777 bfbd c506 173c
000001e0: 2983 d13c bfbc e2bd 329f d63d a67b 2c3e
000001f0: 1d88 e6bd 5f48 0c3e 01f1 54bd 3a9b 1abe
00000200: f9af 03bc cd50 81bd 0fde 53bd 85fa e23d
00000210: 7f53 28bd f4b6 abbd cbbf 86bd 599c 71bd
00000220: 164d 27be dafc 5ebd f5f7 13bc 5672 033e
00000230: 66d6 ddbc 90b8 db3d e862 41bd 3bd9 babd
00000240: b752 f53b 3447 513d f54d 053e d695 0dbe
00000250: eb01 b43c 5d72 06bd 0525 0fbc 75b0 683e
00000260: 3ec7 3f3e 39ad a2bd 9a62 27be e23e 0fbe
00000270: ddf5 07bd 7c5c 90bd d3c1 323e 89e7 0abc
00000280: ce0b 0b3e f6fb d8bd ec19 693a 8cd6 9a3d
00000290: 011c 0c3d 34ab 963d 8d40 f1bc b048 0b3e
000002a0: eb66 52bd 2cb4 8d3a 50ff 74bd 2046 21bd
000002b0: 647d 443d 3f8f dabd 6fa6 113d 5737 c6bd
000002c0: 3a4d d3bc 5c5d c9bd bad4 87bd fc65 a33d
000002d0: 7c62 d4bd d26c 083c 71a3 aebd 96b4 5abd
000002e0: 0388 c2bd e6f9 35be 2910 2fbd ffe5 1bbe
000002f0: d897 1a3d 5585 cebc 00ac 72bc 8b81 f93c
00000300: cc59 2cbd 0a40 8e3b 7d5b 0c3e 43a3 a43b
00000310: 4e89 913d 717e 0e3d ea7d 05bd 2616 9dbd
00000320: 4e92 44be 0ff2 7d3d ce1b 64bc 3c06 2c3d
00000330: eddd c439 b933 993d f607 cb3c 52f4 03be
00000340: 8bfe 2fbe c5b1 00be 45e3 e8bc 45b7 31bd
00000350: 4bdf acbd deed 573d 78ff 1abb e2f3 473d
00000360: 05ef 4fbc eb80 cc3d 87af 043e 6a14 44bd
00000370: fc5f 49be e4c6 0c3d 6ddd 84bd 1e02 1cbe
00000380: ada6 3a3d aef0 7f3d ab61 143e a729 ecbd
00000390: b0c1 edbd 8d18 b7bd 0b59 a8bd 75e0 b73d
000003a0: d921 933d 8afe 323d 61ba 5cbe 7de8 7c3d
000003b0: f1bd ba3c a182 02be 09e2 f4bd 2854 2abd
000003c0: 2a83 8fbc 5432 26bb 93f0 ffbd 151b 20be
000003d0: 9dae c73c 0963 123e 3713 8bbd 7a27 b33c
000003e0: 3ba0 d93d e47c 41bd d486 913c 8647 5a3e
000003f0: 553a 223d de8a 42be 06cb 223e a80e 35be

conv2.bias f4 [64]
0.0036890428 -0.051535644 -0.07510834 -0.033044755 -0.04033771 0.023644617 0.04107868 0.0555099
-0.0046687867 -0.03375212 -0.009707075 -0.030654134 0.02932223 0.018658454 -0.08441716 0.0035335491
-0.09326896 -0.09783106 -0.09892443 0.022395805 -0.06701412 -0.09442034 -0.04211441 -0.021162903
-0.08612929 0.048345774 0.0010894795 -0.00087961694 0.113446675 -0.09175395 -0.005595063 -0.013780983
-0.008237734 -0.081455156 -0.0078060874 -0.044847917 -0.047754448 -0.042817295 0.014903711 0.0053015067
-0.018289564 -0.012595964 0.05411402 -0.0042387717 -0.039053075 0.026054656 -0.009447359 -0.044362962
-0.0581794 -0.065153666 -0.08665527 -0.03410203 -0.017919086 -0.0013099221 0.10455186 -0.08684483
0.054013375 0.0072924136 -0.0513926 0.016086891 -0.051596906 -0.031807993 -0.019570261 0.029032575
00000000: dec3 713b 0a17 53bd 67d2 99bd f059 07bd
00000010: 2839 25bd 5bb2 c13c 1e42 283d 595e 633d
00000020: 9ffc 98bb aa3f 0abd 6c0a 1fbc 611e fbbc
00000030: 2c35 f03c 9dd9 983c e7e2 acbd 1e93 673b
00000040: cc03 bfbd a75b c8bd e498 cabd 6877 b73c
00000050: b33e 89bd 745f c1bd 2980 2cbd d35d adbc
00000060: 8e64 b0bd 3806 463d decc 8e3a 1896 66ba
00000070: bb56 e83d 7fe9 bbbd ca56 b7bb a2c9 61bc
00000080: 90f7 06bc f6d1 a6bd 35ca ffbb 73b2 37bd
00000090: 2b9a 43bd 3061 2fbd b22e 743c 43b8 ad3b
000000a0: ffd3 95bc 4d5f 4ebc aaa6 5d3d 65e5 8abb
000000b0: 1ef6 1fbd 9370 d53c 18c9 1abc f0b5 35bd
000000c0: 864d 6ebd 496f 85bd 5178 b1bd 92ae 0bbd
000000d0: 0ccb 92bc b1b1 abba 491f d63d b4db b1bd
000000e0: 213d 5d3d 33f5 ee3b 0c81 52bd a8c8 833c
000000f0: 4757 53bd 1949 02bd d051 a0bc b9d5 ed3c

conv3.weight f4 [128, 64, 3, 3]
-0.017103445 -0.015183138 0.0057650255 0.06168669 0.11528976 -0.03857792 0.050624374 0.005512715
0.041155595 0.0009918447 0.022890413 -0.064015895 -0.11379052 -0.061479997 -0.05131083 -0.007662764
-0.03145308 0.13660969 -0.0063463943 -0.0042176098 -0.08755305 0.040567923 0.11223081 0.009317758
-0.027516278 -0.06731993 0.04489608 0.14263523 0.12587184 -0.1818185 0.031865347 0.039359044
-0.00023699843 0.08374045 0.03930571 0.10467085 0.017590411 0.11646544 0.04262176 -0.054208234
-0.04145958 0.013282386 0.02088961 0.028669637 -0.037287604 -0.12202271 0.05934109 -0.0072670025
0.04368327 0.048118223 -0.06352755 -0.06813017 0.04639565 -0.06383165 -0.0012842339 0.07980664
-0.0696445 -0.001934948 0.08041197 0.08337116 0.0065164003 -0.0010945888 -0.08110986 0.022348942
0.0072131213 -0.016901253 0.041647904 0.01734362 -0.11170624 -0.061959807 0.05950968 -0.046740126
0.018899236 -0.062074732 -0.029459378 0.0015978267 -0.003232626 0.06832782 0.059896905 0.0560698
0.027544374 0.09125662 -0.122090295 -0.048406165 0.084209055 -0.12995386 -0.08195288 0.09277235
-0.020007424 0.064741544 -0.075994276 0.055229608 0.0908303 0.033506013 0.04465265 -0.007102928
-0.025137339 0.024096776 0.035288487 0.14565414 0.03276362 0.110014275 0.016098375 -0.11888266
-0.04241773 0.037584428 -0.06195062 0.18483117 -0.076208726 -0.003335662 0.11339813 -0.058336154
0.15903836 -0.08857368 0.040135138 -0.0035595144 -0.12308545 0.122892074 0.072875194 -0.05179808
0.013406438 0.14036265 0.084318556 0.050297078 -0.03598134 0.05801789 0.006593627 -0.002694142
-0.019474635 0.025513673 0.028327936 -0.013843787 -0.004603125 0.004647776 0.012778278 -0.15081
0.0075055794 0.049788058 0.093001984 0.010781594 -0.12718324 0.043195404 -0.038025215 0.0008997377
-0.06546342 0.058168616 -0.0090706535 0.08446154 0.027759975 -0.014436698 0.043006033 0.013082057
-0.035893917 0.05360017 0.034183014 -0.027417319 0.019120576 -0.05385871 0.08051817 0.03236483
-0.17260394 -0.15536268 -0.096714 -0.046842907 0.07794607 -0.055075414 -0.04777571 0.043028902
-0.04923551 -0.0112773925 0.037059266 0.026918784 -0.011172153 0.09950374 -0.036147177 -0.051837303
0.07145741 0.008895209 0.095234886 -0.03995883 0.012593508 0.0037039781 0.0071631996 -0.090945765
-0.04038858 -0.0875464 0.040766556 -0.1093088 -0.0040529417 0.08454113 0.13386063 0.06961713
-0.014206379 0.20551743 0.02604276 -0.037215233 -0.03315828 -0.03629004 0.14715868 -0.031071598
-0.124335445 0.14947423 0.107597485 -0.017844679 -0.19791175 0.021074506 0.03291137 0.042564645
0.038934484 0.07707192 -0.019947661 -0.0947887 -0.06597771 0.10370792 0.13998084 -0.13385034
-0.03014874 -0.061185677 0.059448186 -0.11935888 -0.07546409 0.005332674 -0.039196238 -0.19397798
-0.12440917 0.02364568 0.022566289 -0.01084648 -0.04515754 0.05809184 -0.0023880678 0.010200211
-0.012945156 0.01664025 0.1101653 0.00918469 -0.021687284 0.10555127 -0.004437851 -0.086949915
0.16295889 0.15937753 -0.070882805 0.037993047 0.048779026 -0.04769173 0.05927287 0.07333799
0.046083037 -0.13129298 0.04911492 0.047459908 0.05750901 -0.09628563 -6.231341e-05 -0.057187468
00000000: 861c 8cbc b2c2 78bc 8ae8 bc3b 2fab 7c3d
00000010: 0a1d ec3d e203 1ebd 815b 4f3d 01a4 b43b
00000020: c592 283d c900 823a ad84 bb3c c41a 83bd
00000030: 010b e9bd 73d2 7bbd 4e2b 52bd ec17 fbbb
00000040: f2d4 00bd 69e3 0b3e 6af5 cfbb e033 8abb
00000050: 034f b3bd 8d2a 263d 44d9 e53d 82a9 183c
00000060: d169 e1bc 08df 89bd f4e4 373d f80e 123e
00000070: 8ce4 003e a12e 3abe 3d85 023d f336 213d
00000080: c882 78b9 1d80 ab3d 06ff 203d ac5d d63d
00000090: c419 903c 6f85 ee3d 2894 2e3d 7409 5ebd
000000a0: 85d1 29bd 5d9e 593c b020 ab3c 96dc ea3c
000000b0: e3ba 18bd 0be7 f9bd a50f 733d 0920 eebb
000000c0: 3bed 323d 9d17 453d bb1a 82bd d587 8bbd
000000d0: 5d09 3e3d 2bba 82bd bd53 a8ba aa71 a33d
000000e0: c7a1 8ebd 159e fdba 08af a43d 80be aa3d
000000f0: 8787 d53b 4e78 8fba ed1c a6bd 2115 b73c
00000100: 0c5c ec3b 7f74 8abc fe96 2a3d 3514 8e3c
00000110: 3ec6 e4bd 91c9 7dbd 6cc0 733d 9372 3fbd
00000120: 92d2 9a3c 1342 7ebd cb54 f1bc 2b6e d13a
00000130: 77da 53bb 75ef 8b3d 7556 753d 72a9 653d
00000140: bda4 e13c c0e4 ba3d 7a0a fabd 8b45 46bd
00000150: cc75 ac3d a012 05be e9d6 a7bd 6eff bd3d
00000160: 9ce6 a3bc 3797 843d e3a2 9bbd 7138 623d
00000170: 3c05 ba3d 9a3d 093d b2e5 363d aebf e8bb
00000180: d2ec cdbc 9a66 c53c a98a 103d 5c26 153e
00000190: 2533 063d 2a4f e13d bde0 833c c178 f3bd
000001a0: 37be 2dbd 21f2 193d efbf 7dbd 6244 3d3e
000001b0: 5213 9cbd 1f9b 5abb 473d e83d e4f1 6ebd
000001c0: f4da 223e 1e66 b5bd be64 243d be46 69bb
000001d0: 3914 fcbd d7ae fb3d 973f 953d 392a 54bd
000001e0: ada6 5b3c 3abb 0f3e 35af ac3d 4f04 4e3d
000001f0: 2b61 13bd 2ba4 6d3d 5a0f d83b 3490 30bb
00000200: 4589 9fbc 0d02 d13c fd0f e83c 0dd1 62bc
00000210: d0d5 96bb 5f4c 983b fc5b 513c f06d 1abe
00000220: 5df1 f53b 90ee 4b3d d377 be3d 48a5 303c
00000230: 533c 02be aaed 303d 54c0 1bbd 60dc 6b3a
00000240: af11 86bd 3742 6e3d 149d 14bc 2cfa ac3d
00000250: e368 e33c e687 6cbc 1827 303d 2056 563c
00000260: 8005 13bd da8b 5b3d 7d03 0c3d 499a e0bc
00000270: c1a2 9c3c f39a 5cbd b6e6 a43d fc90 043d
00000280: 16bf 30be 6517 1fbe fd11 c6bd 59de 3fbd
00000290: 30a2 9f3d c296 61bd 76b0 43bd 133f 303d
000002a0: 2dab 49bd d0c4 38bc 75cb 173d c884 dc3c
000002b0: 680b 37bc 9ec8 cb3d 100f 14bd 5a53 54bd
000002c0: 4358 923d 36bd 113c 820a c33d dfab 23bd
000002d0: 0055 4e3c 71be 723b 46b9 ea3b c641 babd
000002e0: 7f6e 25bd 874b b3bd d5fa 263d 4bdd dfbd
000002f0: 8ace 84bb e623 ad3d c312 093e 6d93 8e3d
00000300: dfc1 68bc 2973 523e a057 d53c 006f 18bd
00000310: fad0 07bd dda4 14bd c4b0 163e dd89 febc
00000320: 95a3 febd c60f 193e 125c dc3d 012f 92bc
00000330: 61a9 4abe 71a4 ac3c 13ce 063d 4458 2e3d
00000340: c479 1f3d e2d7 9d3d 4769 a3bc 9420 c2bd
00000350: 521f 87bd d164 d43d 2357 0f3e 1010 09be
00000360: 7efa f6bc d59d 7abd f17f 733d 6e72 f4bd
00000370: eb8c 9abd b6bd ae3b 3c8c 20bd 2aa2 46be
00000380: 3cca febd 96b4 c13c f0dc b83c 6fb5 31bc
00000390: 1df7 38bd b6f1 6d3d 2181 1cbb c91e 273c
000003a0: eb17 54bc 2251 883c 589e e13d 627b 163c
000003b0: 88a9 b1bc 442b d83d 646b 91bb cc12 b2bd
000003c0: b2de 263e dd33 233e 012b 91bd 999e 1b3d
000003d0: 84cc 473d 6758 43bd 1cc8 723d 3a32 963d
000003e0: 91c1 3c3d ab71 06be ba2c 493d 5265 423d
000003f0: 918e 6b3d 6631 c5bd 42ae 82b8 683d 6abd

conv3.bias f4 [128]
-0.009337076 0.12723303 -0.038739976 -0.15897517 0.018971477 0.025685992 -0.012729018 0.12354605
0.07781608 -0.008792861 0.06454563 -0.07970902 -0.027136654 -0.063832305 -0.026443342 -0.044387396
0.042909127 -0.0012432078 -0.042722523 0.02710435 -0.023272488 -0.011431152 -0.089674935 -0.113676645
0.09649192 -0.011913709 -0.02877562 -0.022889547 0.043655228 -0.014960332 -0.07342734 -0.046554416
-0.044214353 0.033418525 0.13469587 0.04040149 -0.04178038 -0.051021513 -0.08631865 -0.10454134
0.011801205 -0.0009780267 0.020133344 -0.13068768 0.06424833 -0.009322909 0.004552827 0.027041422
-0.015838206 -0.0064929794 -0.0034656967 0.051604945 0.12515728 -0.060221273 0.0968478 0.01825673
-0.047590572 -0.095377386 -0.0077934247 -0.00871319 -0.030025765 -0.0099867545 -0.01657404 0.052867588
0.06498327 0.03197014 -0.07875079 0.08996773 0.010946924 0.1827395 0.04789661 -0.096543066
-0.119779244 -0.068996646 -0.10236135 -0.016073694 -0.13166206 0.0356013 -0.005965027 0.0010892295
-0.02166829 0.2756261 0.1454851 -0.004517575 -0.03466311 0.12829106 -0.072007105 -0.00024967763
0.17653157 -0.05568437 -0.019402647 -0.12618034 -0.090707004 0.08751693 0.07439079 0.103980795
-0.08164581 -0.006544079 0.22651197 0.042239837 -0.020548375 -0.11729177 -0.020767702 -0.0347475
-0.07868613 -0.07180126 -0.042605143 -0.01038032 0.027660355 -0.033608712 0.01882825 0.021344345
-0.018130638 -0.04799608 0.14057994 -0.045165867 0.09904275 -0.037236024 -0.06558976 -0.06402118
-0.029144773 -0.027024742 -0.013079479 -0.054486714 -0.03149528 0.09222353 0.017994938 0.060209792
00000000: 89fa 18bc 6049 023e cfad 1ebd 63ca 22be
00000010: 126a 9b3c 6e6b d23c 5f8d 50bc b605 fd3d
00000020: 095e 9f3d ef0f 10bc 8030 843d 7c3e a3bd
00000030: b04d debc 83ba 82bd b59f d8bc 8fcf 35bd
00000040: 7bc1 2f3d 22f3 a2ba d0fd 2ebd f109 de3c
00000050: f2a5 bebc ba49 3bbc 7ea7 b7bd 4dcf e8bd
00000060: 8e9d c53d b831 43bc d9ba ebbc dc82 bbbc
00000070: d3cf 323d 2e1c 75bc 1361 96bd d8af 3ebd
00000080: 1c1a 35bd dde1 083d b7ed 093e 087c 253d
00000090: e721 2bbd effb 50bd d5c7 b0bd c519 d6bd
000000a0: d759 413c 2131 80ba afee a43c fed2 05be
000000b0: a194 833d 1dbf 18bc e22f 953b f985 dd3c
000000c0: 20bf 81bc 0fc3 d4bb be20 63bb b55f 533d
000000d0: 3b29 003e 95aa 76bd 2458 c63d 238f 953c
000000e0: 55ee 42bd 3855 c3bd fc5f ffbb c5c1 0ebc
000000f0: 98f8 f5bc 7c9f 23bc 48c6 87bc af8b 583d
00000100: f315 853d 1ff3 023d 1848 a1bd 0041 b83d
00000110: ba5a 333c 1020 3b3e 3c2f 443d 5fb8 c5bd
00000120: d24e f5bd 1d4e 8dbd d4a2 d1bd fbac 83bc
00000130: 6bd2 06be abd2 113d 4676 c3bb 7ac4 8e3a
00000140: b381 b1bc dd1e 8d3e 0cfa 143e 2a08 94bb
00000150: e8fa 0dbd bb5e 033e 7678 93bd 2ae7 82b9
00000160: b1c4 343e 4b15 64bd 4df2 9ebc 6b35 01be
00000170: 98c4 b9bd 143c b33d 335a 983d e2f3 d43d
00000180: eb35 a7bd b76f d6bb c1f2 673e ae03 2d3d
00000190: 1155 a8bc ab36 f0bd 0721 aabc 6553 0ebd
000001a0: 3226 a1bd 8a0c 93bd bb82 2ebd 3812 2abc
000001b0: f897 e23c 4aa9 09bd b43d 9a3c 56da ae3c
000001c0: b486 94bc 8a97 44bd 30f4 0f3e d8ff 38bd
000001d0: edd6 ca3d cd84 18bd ed53 86bd 891d 83bd
000001e0: 05c1 eebc fe62 ddbc 504b 56bc 762d 5fbd
000001f0: 3201 01bd b1df bc3d 1f6a 933c 8b9e 763d

act_conv1.weight f4 [4, 128, 1, 1]
-0.04810583 0.25182456 -0.15501867 -0.022004338 -0.09126606 -0.033591397 -9.940902e-25 0.12841408
0.036680408 1.5405406e-24 0.08024484 0.065641314 0.06224901 -0.21407776 -0.020029958 -0.08502768
0.07095209 2.0044032e-05 -0.060204964 0.054836683 -0.38019973 -0.13393122 -0.13510962 0.35038802
0.08844295 0.13876702 -0.0016553348 0.08361077 0.06669389 3.2499577e-14 0.2935013 0.14097945
-0.23044042 0.09713316 0.31950507 0.07970707 -0.17725264 -0.20074388 0.2508539 0.1450896
-0.008501901 -0.16738938 -0.10489605 -0.07594346 0.13723734 0.17682141 -0.002309013 0.24606574
-0.16582759 0.07352013 1.0676218e-23 0.4089485 0.17455046 -0.13826942 0.09228561 0.13893645
0.030037435 0.27224326 -0.018102283 5.074068e-24 -1.0364425e-09 -4.143577e-17 0.13757645 0.06407127
0.11656109 0.064997055 -0.12090742 -0.06704931 0.049250986 0.22247268 0.38095632 0.13181293
-0.05214331 -0.23459442 -0.07230434 -0.18081877 -0.04034974 -0.14690036 -0.08484958 0.058924954
8.676324e-25 0.3820293 0.3194317 0.20031053 -0.06292257 0.18843943 -0.121575736 -5.096541e-05
0.1444905 -0.018718144 0.19952449 -0.0014789911 0.28283033 -0.04977608 0.12910587 -0.28027663
-0.0175325 -7.1987e-25 0.13774773 0.1367956 -0.08170005 -0.059323955 -0.07243714 -0.25863406
0.01418018 -0.17911933 -0.110587105 8.631204e-14 0.23362546 -0.21143202 0.27350873 3.7467844e-06
0.11959507 0.10818083 -0.012855952 0.2600649 0.16168526 0.14656848 0.112002 -0.060947284
0.106680594 0.041915968 -0.24533886 -0.4273406 0.2796416 0.13845785 -0.46076125 0.47192955
-0.05004174 0.06970027 0.15459931 -0.06767496 0.04900191 -0.13807099 -1.6239503e-24 0.15592116
0.08981419 -1.2142364e-24 0.092991605 0.07384325 0.03158403 -0.13516484 -0.03379932 0.06382185
0.14054522 -0.0015464606 0.07502942 -0.20471118 0.104890764 0.110852696 0.10673483 0.054963797
-0.09537202 -0.043784726 -0.13068056 -0.10223287 0.034835964 9.1325354e-24 0.030910168 -0.12679279
-0.12112313 -0.06566711 -0.25492513 0.044367082 0.060350247 -0.020995293 -0.2146272 -0.032875247
-0.027606266 0.042844728 -0.08038022 -0.047156733 0.10920919 -0.016395576 0.17811091 -0.14514719
0.12642464 -0.10327954 -6.578665e-24 0.22060353 -0.16133991 -0.027050206 0.08040714 0.15689762
0.03055032 0.07995717 0.14616561 -1.518094e-25 0.0007326928 -1.7293224e-16 0.13638757 -0.16710319
0.10419534 -0.14466055 -0.08038885 0.028164579 0.09167995 0.00013439723 -0.03955098 0.015460533
-0.20540881 -0.31052542 0.08051292 -0.119968496 0.013413964 -0.13189638 -0.09494612 0.028999936
3.2379294e-10 -0.060872134 0.04588767 0.012797805 0.10999402 0.009460573 -0.085899085 -3.941012e-06
-0.0009087606 -0.018503778 0.20262586 0.14680402 0.10654398 -0.03355118 -0.001420587 0.10997615
0.12782934 -5.3296987e-14 -0.13255051 -0.14089361 0.14060631 0.3315572 0.17055586 -0.30787936
0.08763913 0.2022525 -0.040777214 -0.00029902204 0.08464236 -0.09123022 -0.061166648 -0.0025401213
-0.14409664 0.013716972 -0.019742986 0.18624394 0.028319761 -0.08262315 0.1646019 0.06983484
0.08567481 -0.011282099 0.14360674 0.007787662 -0.29506758 -0.02499809 0.046819296 0.2850112
00000000: 9e0a 45bd 26ef 803e 37bd 1ebe 7142 b4bc
00000010: b3e9 babd 2297 09bd f8d3 9997 fb7e 033e
00000020: 323e 163d 1a63 ee17 6857 a43d f46e 863d
00000030: d1f8 7e3d 3337 5bbe de15 a4bc fe22 aebd
00000040: 544f 913d 3b24 a837 7b99 76bd 6e9c 603d
00000050: 8aa9 c2be 4425 09be 2d5a 0abe 0f66 b33e
00000060: 9421 b53d f118 0e3e d2f7 d8ba 203c ab3d
00000070: ce96 883d 765d 1229 cd45 963e eb5c 103e
00000080: 93f8 6bbe c0ed c63d 2b96 a33e 763d a33d
00000090: b781 35be ce8f 4dbe ec6f 803e 5e92 143e
000000a0: 8f4b 0bbc 1f68 2bbe bed3 d6bd 3f88 9bbd
000000b0: f287 0c3e ac10 353e cf52 17bb a8f8 7b3e
000000c0: b5ce 29be b991 963d 1282 4e19 b361 d13e
000000d0: 5bbd 323e 8096 0dbe 3d00 bd3d 5b45 0e3e
000000e0: 1111 f63c 7863 8b3e 3d4b 94bc 234b c418
000000f0: 9472 8eb0 b916 3fa4 d7e0 0c3e cc37 833d
00000100: 95b7 ee3d 2d1d 853d 4f9e f7bd 2651 89bd
00000110: 67bb 493d e1cf 633e b50c c33e f8f9 063e
00000120: 3994 55bd 8539 70be 4c14 94bd 8e28 39be
00000130: c545 25bd 0c6d 16be 9ec5 adbd 4b5b 713d
00000140: 7642 8617 5899 c33e 8d8c a33e 341e 4d3e
00000150: 8cdd 80bd 44f6 403e b3fc f8bd b1c3 55b8
00000160: 51f5 133e cb56 99bc 2650 4c3e b5da c1ba
00000170: 23cf 903e 01e2 4bbd 5434 043e 6b80 8fbe
00000180: 51a0 8fbc fac9 5e97 be0d 0d3e 2514 0c3e
00000190: 5b52 a7bd adfd 72bd ec59 94bd af6b 84be
000001a0: fc53 683c 0f6b 37be 7e7b e2bd 815b c229
000001b0: 833b 6f3e a381 58be 5609 8c3e 4471 7b36
000001c0: 43ee f43d e98d dd3d c5a1 52bc 3a27 853e
000001d0: d290 253e 0c16 163e 4e61 e53d dca3 79bd
000001e0: 5b7b da3d 14b0 2b3d 1c3a 7bbe 63cc dabe
000001f0: 2f2d 8f3e e5c7 0d3e e6e8 ebbe c0a0 f13e
00000200: 91f8 4cbd 04bf 8e3d 484f 1e3e 2b99 8abd
00000210: 3ab6 483d 7b62 0dbe 4d4b fb97 cca9 1f3e
00000220: 81f0 b73d dce4 bb97 6272 be3d 213b 973d
00000230: 415e 013d a768 0abe 2871 0abd 08b5 823d
00000240: 16eb 0f3e 9bb2 caba 06a9 993d cf9f 51be
00000250: f8d0 d63d bd06 e33d ca97 da3d b821 613d
00000260: 6852 c3bd 9d57 33bd 20d1 05be 785f d1bd
00000270: 28b0 0e3d 20a6 3019 5237 fd3c f8d5 01be
00000280: 670f f8bd 7a7c 86bd 8c85 82be 42ba 353d
00000290: d231 773d 52fe abbc 3cc7 5bbe 32a8 06bd
000002a0: 8926 e2bc f47d 2f3d 639e a4bd 6b27 41bd
000002b0: 11a9 df3d 0450 86bc b562 363e 77a1 14be
000002c0: 7675 013e 3984 d3bd f17f fe98 e4e5 613e
000002d0: 4a36 25be 6598 ddbc 80ac a43d c5a9 203e
000002e0: aa44 fa3c 96c0 a33d 70ac 153e 52ee 3b96
000002f0: 2e12 403a 9760 47a5 2fa9 0b3e 191d 2bbe
00000300: 5e64 d53d e521 14be e9a2 a4bd 67b9 e63c
00000310: b3c2 bb3d fbec 0c39 3500 22bd 2d4e 7d3c
00000320: b056 52be 30fd 9ebe f5e3 a43d 0bb2 f5bd
00000330: 3ec6 5b3c d80f 07be 1d73 c2bd 4691 ed3c
00000340: ce01 b22f 0f55 79bd b6f4 3b3d e2ad 513c
00000350: 8b44 e13d 8500 1b3c dceb afbd 093d 84b6
00000360: e439 6eba 3c95 97bc 277d 4f3e cb53 163e
00000370: bb33 da3d f66c 09bd fd32 baba 2d3b e13d
00000380: b2e5 023e 3e07 70a9 52bb 07be 6a46 10be
00000390: 1afb 0f3e dec1 a93e 32a6 2e3e 5da2 9dbe
000003a0: 257c b33d 481b 4f3e 0206 27bd 0fc6 9cb9
000003b0: f958 ad3d e9d6 babd e189 7abd 2a78 26bb
000003c0: 128e 13be 27bd 603c 0bbc a1bc bbb6 3e3e
000003d0: d8fe e73c 5336 a9bd 678d 283e 9205 8f3d
000003e0: 4676 af3d 8ed8 38bc a50d 133e a52f ff3b
000003f0: 1913 97be cbc8 ccbc 97c5 3f3d fdec 913e

act_conv1.bias f4 [4]
0.18893151 -0.02927412 0.179599 -0.019158237
00000000: 4377 413e 48d0 efbc cde8 373e bcf1 9cbc

act_fc1.weight f4 [36, 144]
-0.4165059 -0.19571425 -0.13066189 -0.106187046 -0.19517733 -0.029855989 0.020147078 -0.00088479545
-0.05384263 -0.012021897 -0.15973341 -0.12550446 -0.19063647 -0.01844598 -0.057624742 0.054577082
0.012203804 -0.04547157 0.20037602 -0.104148105 -0.113981426 -0.012523066 -0.060756266 0.026529588
0.27673277 0.17883769 0.111150295 -0.001403197 -0.17792086 -0.14528029 -0.026965858 -0.18210642
0.09927415 0.116754904 -0.022002066 -0.091045335 0.03345713 -0.06563934 -0.038742654 -0.08619149
0.0042560725 0.17649315 0.038386546 0.028770695 0.10445811 0.088060774 0.08389539 0.07255013
0.014892791 -0.0034823746 0.0025961234 0.20504849 0.13264081 0.0053413664 0.13326228 -0.051946152
0.02103214 0.07956313 0.12905987 -0.11105179 -0.51930475 -0.13228601 -0.16205983 0.019287188
0.07373285 0.036269497 -0.08729238 -0.6913601 0.04130945 0.15653259 0.13916183 0.135226
-0.4917927 -0.05158466 -0.30501893 -0.21891475 -0.135553 0.13380213 -0.15848191 -0.13404937
0.060980555 -0.07358971 -0.11896952 -0.27840948 -0.13812606 0.0871483 -0.09727533 0.018203786
0.06467016 -0.22477421 0.13643755 -0.030091519 0.0056571746 -0.24123524 0.04870788 -0.102631986
0.10416983 -0.10486618 -0.11045974 0.026176073 -0.095217094 -0.1630585 -0.296757 -0.20014766
0.21718453 -0.008489924 -0.06938602 -0.15586351 0.229459 0.1276307 -0.05175165 -0.03011261
-0.327034 -0.03856886 0.10083338 0.04156991 -0.1300576 0.03962009 0.09473406 -0.11798193
0.056870427 0.05867347 -0.106564574 -0.2045611 -0.10121062 -0.081182145 0.28906476 0.0571581
-0.053323597 -0.36782742 -0.38061097 0.0147110205 -0.26582927 -0.053256486 0.18762103 0.1720826
-0.013932645 0.1453212 -0.3159087 0.012971533 -0.09598685 -0.011288002 -0.14995551 0.024586264
-0.24537382 -0.15305485 -0.027416408 -0.089705825 -0.12545362 0.057985555 0.1058184 -0.07673627
-0.09753636 0.00043455244 -0.17344007 -0.047433708 -0.031203618 0.07584882 -0.041709576 -0.061749257
-0.12330024 -0.15320756 -0.025373416 0.12131425 -0.066968955 -0.045352213 -0.10033256 0.013226043
-0.31264204 0.22892639 0.038885273 0.088995345 -0.14269468 -0.09727116 0.1524223 0.11599035
-0.14799356 0.10892379 0.17163879 -0.11945098 -0.08668367 0.17047827 -0.12163627 0.02088825
0.030767223 -0.09521763 -0.06108408 -0.11232964 -0.04156863 0.059621435 0.1854123 0.047146246
0.4519965 -0.16462214 -0.08714478 0.13805558 0.2567787 -0.11531313 0.055005755 -0.00426056
0.12427326 0.0063090906 -0.055327434 -0.04665801 0.21159111 -0.58963203 0.0993126 -0.020560114
-0.019095242 -0.02303602 0.14263216 0.06779482 -0.71378917 0.04406115 0.1094075 -0.07335716
-0.29287496 0.028000282 0.026175914 -0.21603589 -0.06129983 -0.32198283 -0.068757445 -0.22659028
-0.07440414 -0.07629152 -0.09884975 -0.1728813 -0.116934925 0.12404513 -0.022642717 0.04133666
0.14405571 -0.08037078 -0.1052243 0.062133577 0.11245562 -0.03789574 -0.19450475 -0.103130646
-0.23629585 0.004091462 -0.19772077 -0.084031336 -0.1846698 -0.022982636 0.17694938 -0.5008439
-0.521664 0.14733541 -0.102804996 -0.079628654 -0.05881708 0.13822144 0.121105984 -0.022933891
00000000: 4340 d5be 5169 48be 3bcc 05be 9878 d9bd
00000010: 91dc 47be 8c94 f4bc 7c0b a53c 9ef1 67ba
00000020: 178a 5cbd 7ef7 44bc 2891 23be 3e84 00be
00000030: 3536 43be 061c 97bc ec07 6cbd 388c 5f3d
00000040: 77f2 473c 6640 3abd 5f2f 4d3e 9a4b d5bd
00000050: 186f e9bd 8c2d 4dbc 90db 78bd 9454 d93c
00000060: ebaf 8d3e 3a21 373e c4a2 e33d 7aeb b7ba
00000070: e330 36be 5bc4 14be 81e7 dcbc 1b7a 3abe
00000080: 3f50 cb3d 321d ef3d ad3d b4bc fa75 babd
00000090: 580a 093d eb6d 86bd 9eb0 1ebd 2a85 b0bd
000000a0: 8676 8b3b 9fba 343e 363b 1d3d 85b0 eb3c
000000b0: 22ee d53d 3559 b43d 59d1 ab3d 2a95 943d
000000c0: e500 743c 8d38 64bb b923 2a3b 3bf8 513e
000000d0: fed2 073e a106 af3b e875 083e 7dc5 54bd
000000e0: 984b ac3c fff1 a23d 4528 043e 1f6f e3bd
000000f0: 28f1 04bf fc75 07be 03f3 25be 2a00 9e3c
00000100: 4001 973d 538f 143d 59c6 b2bd fafc 30bf
00000110: 1934 293d 144a 203e 7080 0e3e af78 0a3e
00000120: 41cc fbbe 704a 53bd 712b 9cbe 302b 60be
00000130: 68ce 0abe 6d03 093e 1549 22be 3d44 09be
00000140: bfc6 793d 34b6 96bd 4ba6 f3bd b08b 8ebe
00000150: eb70 0dbe cf7a b23d 4a38 c7bd 1b20 953c
00000160: ca71 843d 362b 66be 49b6 0b3e 7d82 f6bc
00000170: d25f b93b 5f06 77be ea81 473d b830 d2bd
00000180: fe56 d53d 14c4 d6bd b738 e2bd 346f d63c
00000190: 2e01 c3bd cff8 26be 89f0 97be 82f3 4cbe
000001a0: 9f65 5e3e 5219 0bbc 421a 8ebd af9a 1fbe
000001b0: 4df7 6a3e 9fb1 023e 8af9 53bd b8ae f6bc
000001c0: 0071 a7be 62fa 1dbd bb81 ce3d 3645 2a3d
000001d0: d22d 05be ad48 223d ee03 c23d 83a0 f1bd
000001e0: f7f0 683d 9853 703d 873e dabd 7778 51be
000001f0: 8347 cfbd d342 a6bd 4c00 943e 9d1e 6a3d
00000200: d869 5abd e053 bcbe 71df c2be 7e06 713c
00000210: c61a 88be 7923 5abd ba1f 403e 6c36 303e
00000220: c045 64bc 15cf 143e c9be a1be 8e86 543c
00000230: c194 c4bd 50f1 38bc f08d 19be 2269 c93c
00000240: 4643 7bbe 69ba 1cbe 6098 e0bc b0b7 b7bd
00000250: ea76 00be 4382 6d3d 51b7 d83d e827 9dbd
00000260: 25c1 c7bd a4d4 e339 469a 31be d949 42bd
00000270: bb9e ffbc a056 9b3d a9d7 2abd caec 7cbd
00000280: d684 fcbd 71e2 1cbe e9db cfbc 9b73 f83d
00000290: 0527 89bd 3ec3 39bd 287b cdbd 0cb2 583c
000002a0: 9e12 a0be ae6b 6a3e 2a46 1f3d 3143 b63d
000002b0: 8e1e 12be 1a36 c7bd 9714 1c3e 598c ed3d
000002c0: a08b 17be 7013 df3d 14c2 2f3e b7a2 f4bd
000002d0: 3587 b1bd db91 2e3e 701c f9bd d61d ab3c
000002e0: 8b0b fc3c 7601 c3bd 4d33 7abd 150d e6bd
000002f0: de43 2abd 9b35 743d b9dc 3d3e 6c1c 413d
00000300: 166c e73e b592 28be f678 b2bd 715e 0d3e
00000310: 7f78 833e 4a29 ecbd b74d 613d 2b9c 8bbb
00000320: fb82 fe3d 7dbc ce3b 059f 62bd 781c 3fbd
00000330: 57ab 583e 20f2 16bf 6864 cb3d af6d a8bc
00000340: a06d 9cbc 09b6 bcbc 2a0e 123e 03d8 8a3d
00000350: e3ba 36bf 7779 343d 0a11 e03d 473c 96bd
00000360: b5f3 95be d960 e53c df6e d63c 8338 5dbe
00000370: 8815 7bbd efda a4be b4d0 8cbd 4807 68be
00000380: 3361 98bd ba3e 9cbd bd71 cabd cc07 31be
00000390: 947b efbd 600b fe3d 387d b9bc a150 293d
000003a0: 5783 133e 6f99 a4bd d67f d7bd c77f 7e3d
000003b0: 224f e63d 9038 1bbd 412c 47be 2936 d3bd
000003c0: 8af7 71be ac11 863b 5077 4abe 9f18 acbd
000003d0: 141a 3dbe 1546 bcbc 3832 353e 4e37 00bf
000003e0: c68b 05bf 18df 163e 6d8b d2bd 5914 a3bd
000003f0: 2eea 70bd ec89 0d3e 6a06 f83d dbdf bbbc

act_fc1.bias f4 [36]
-0.53187436 -0.46407658 -0.021661948 -0.06624235 -0.5097333 -0.45922494 -0.37998712 -0.07289664
0.4260404 0.47071886 0.015427825 -0.429044 -0.11903971 0.316657 0.08284322 0.16499966
0.42280072 -0.121456325 -0.024890635 0.49421415 0.115513474 0.13065174 0.4258591 -0.1442821
-0.43935823 -0.021944067 0.39395887 0.49305406 0.0028387774 -0.4403949 -0.32890385 -0.4408594
-0.15965223 -0.0824455 -0.35928625 -0.4981485
00000000: eb28 08bf 729b edbe 6674 b1bc 12aa 87bd
00000010: e27d 02bf 881f ebbe ac8d c2be d54a 95bd
00000020: f821 da3e 1002 f13e fdc4 7c3c a8ab dbbe
00000030: 17cb f3bd de20 a23e b5a9 a93d acf5 283e
00000040: 5679 d83e 18be f8bd 72e7 cbbc a309 fd3e
00000050: 5492 ec3d 92c9 053e 340a da3e b0be 13be
00000060: 90f3 e0be 0bc4 b3bc fab4 c93e 9571 fc3e
00000070: c80a 3a3b 717b e1be 1666 a8be 53b8 e1be
00000080: e07b 23be 30d9 a8bd 5ef4 b7be 520d ffbe

val_conv1.weight f4 [2, 128, 1, 1]
0.06712057 0.12970902 0.13482334 0.073259115 0.03946167 0.050052717 -0.00022907216 0.08953395
-0.20751017 -9.335832e-05 0.052375987 -0.2672147 -0.26120543 -0.14635159 0.039286662 0.074285656
-0.11869697 0.00047655206 0.212346 -0.36932874 -0.1836933 0.113368995 -0.2920748 -0.31850773
0.08601896 -0.2085117 0.11889738 -0.26765 0.16756012 -0.031142186 -0.34342825 0.16194129
-0.010356188 0.357968 -0.13087925 0.048403386 0.117507584 0.28260237 0.11624524 0.17240797
-0.2474589 0.18532236 -0.2418181 -0.22346765 -0.15538788 0.206034 0.042523235 0.0992838
-0.015792985 0.19606625 -0.00023779027 0.009602335 -0.045645803 0.103244394 0.21232392 0.124545716
-0.0037554272 0.3037248 -0.07037455 -0.0009229547 -0.009453646 -0.0010783498 -0.16707675 -0.16804665
0.07926206 -0.21189262 -0.15954897 0.07806093 -0.1606981 0.07987481 0.061502714 -0.20496926
0.22101204 -0.10142373 0.19671914 0.093217455 0.14132613 0.060844697 -0.059150267 0.09708473
-0.0043578465 -0.14891654 -0.059144143 0.12840351 -0.20690246 0.31242076 0.13552569 -0.005423952
0.054821532 0.18310598 0.21183555 0.22411436 0.058923468 -0.11795166 0.21013601 -0.14952
-0.2919246 0.00015583045 0.077501595 -0.20012751 0.25350606 -0.3157761 -0.20987812 0.08707486
0.14937891 -0.118230775 -0.29827717 0.036028083 0.111875914 0.081129745 -0.010560631 0.06266053
-0.26494277 0.23240891 0.09427024 -0.09225831 -0.13310026 -0.32771164 0.3693688 0.1811597
-0.22632717 -0.12521553 -0.06722183 0.07319282 0.07517718 -0.28623515 -0.10510225 0.11603489
-0.020692201 -0.035371907 -0.036625884 0.13166335 -0.06472617 0.024219122 5.1318064e-25 -0.052203182
-0.086564705 -9.707642e-25 0.01327395 0.011675812 -0.008445133 0.022114612 -0.04090934 -0.08066988
-0.047196295 -0.0026437612 0.010771865 0.011338884 0.028574891 0.03641893 -0.03926803 0.028664507
0.027463978 0.020529455 -0.043612275 -0.054884233 -0.06448864 -3.4969703e-24 -0.023185171 -0.02517236
-0.036694065 0.048553012 -0.027122052 -0.06685793 0.020980377 0.03661496 -0.01317121 0.030379632
0.011722732 0.062199604 -0.006751762 0.0073964563 -0.04086285 0.07411193 -8.535002e-05 0.03700049
-0.02023131 0.0556927 1.8481469e-24 -0.072673015 -0.10917364 0.015934002 0.0060131447 -0.009400839
0.06214152 0.005276004 -0.12176153 -4.4399207e-25 -0.00440502 7.3774656e-25 0.013096123 -0.08163994
-0.10532623 -0.09861805 -0.03220928 -0.10665129 -0.11236025 -0.08264895 0.017064888 0.02805957
0.005090711 0.02155561 0.0011078711 0.05944356 -0.039822076 -0.02031515 -0.08186923 0.009886499
1.5387724e-24 0.06013197 0.05121711 0.04245142 -0.0696628 0.070395745 -0.056194473 7.5317767e-25
-0.03434394 -0.03340331 -0.007051003 -0.033785462 -0.004936353 -0.031218985 0.07378835 0.010019746
0.020029904 6.115636e-25 -0.045054168 -0.015194466 -0.03929014 -0.0065178354 -0.046090353 0.040665694
-0.071727574 -0.050426736 -0.010055956 -0.0037891683 -0.041680507 0.010724013 -0.14428933 -0.009235767
-0.047994137 0.08598515 -0.08872948 -0.042279497 -0.11004547 0.015630595 0.1338254 0.034763515
-0.045703042 -0.08449869 -0.06113775 0.05313195 0.014780517 0.0025519093 -0.06762192 -0.052083556
00000000: 8276 893d 71d2 043e 210f 0a3e e008 963d
00000010: 8fa2 213d 1404 4d3d 1733 70b9 935d b73d
00000020: 8c7d 54be 5ec9 c3b8 3488 563d 5dd0 88be
00000030: b8bc 85be 31dd 15be 0deb 203d 1423 983d
00000040: 6617 f3bd bcd9 f939 3b71 593e a818 bdbe
00000050: 191a 3cbe 012e e83d d48a 95be 7213 a3be
00000060: b52a b03d 1784 55be 7880 f33d 6c09 89be
00000070: e194 2b3e e61d ffbc d4d5 afbe f0d3 253e
00000080: 00ad 29bc 9547 b73e 3605 06be a142 463d
00000090: d1a7 f03d 42b1 903e fc11 ee3d b78b 303e
000000a0: de65 7dbe 25c5 3d3e 2a9f 77be b4d4 64be
000000b0: 001e 1fbe 94fa 523e d82c 2e3d 4e55 cb3d
000000c0: 4a60 81bc 97c5 483e 5757 79b9 1d53 1d3c
000000d0: 18f7 3abd cc71 d33d 716b 593e d311 ff3d
000000e0: 9d1d 76bb d181 9b3e 8820 90bd 71f2 71ba
000000f0: 77e3 1abc 6a57 8dba 2b16 2bbe 6c14 2cbe
00000100: 2654 a23d 61fa 58be ce60 23be 69de 9f3d
00000110: 0b8e 24be 6895 a33d 45ea 7b3d 76e3 51be
00000120: fb50 623e 3fb7 cfbd be70 493e cbe8 be3d
00000130: ccb7 103e 4a38 793d 8d47 72bd 5cd4 c63d
00000140: 44cc 8ebb 947d 18be 2141 72bd 367c 033e
00000150: 3dde 53be 9df5 9f3e 3fc7 0a3e 68bb b1bb
00000160: 8b8c 603d 2280 3b3e 6beb 583e 3c7e 653e
00000170: bc59 713d a490 f1bd e52d 573e c51b 19be
00000180: 2477 95be 6b66 2339 28b9 9e3d 3aee 4cbe
00000190: 8ccb 813e 68ad a1be 4aea 56be 4e54 b23d
000001a0: c9f6 183e fa22 f2bd c9b7 98be 2f92 133d
000001b0: 331f e53d 5a27 a63d 7f06 2dbc 2a54 803d
000001c0: 94a6 87be 9afc 6d3e c110 c13d edf1 bcbd
000001d0: 6f4b 08be d2c9 a7be e81d bd3e ee81 393e
000001e0: 4fc2 67be 8038 00be 99ab 89bd 1ee6 953d
000001f0: 7ef6 993d 6a8d 92be d93f d7bd b3a3 ed3d
00000200: b182 a9bc 22e2 10bd 0605 16bd c2d2 063e
00000210: 278f 84bd 2e67 c63c 5cd2 1e17 01d3 55bd
00000220: d648 b1bd ef37 9697 fb7a 593c e84b 3f3c
00000230: 755d 0abc b429 b53c 8d90 27bd 4036 a5bd
00000240: e750 41bd f442 2dbb 7a7c 303c bac6 393c
00000250: e415 ea3c 042c 153d 84d7 20bd d4d1 ea3c
00000260: 23fc e03c 632d a83c c9a2 32bd 4ace 60bd
00000270: 9f12 84bd 5148 8798 d4ee bdbc 4436 cebc
00000280: 844c 16bd 86df 463d 112f debc cfec 88bd
00000290: 0adf ab3c 91f9 153d 0fcc 57bc b5de f83c
000002a0: b410 403c 03c5 7e3d e23d ddbb f95d f23b
000002b0: ce5f 27bd ffc7 973d f1fd b2b8 d38d 173d
000002c0: 22bc a5bc 071e 643d 52fe 0e18 97d5 94bd
000002d0: 6e96 dfbd 0688 823c ea09 c53b fa05 1abc
000002e0: 1b88 7e3d 54e2 ac3b 1c5e f9bd ad68 0997
000002f0: fc57 90bb 4e52 6417 1f91 563c d732 a7bd
00000300: 47b5 d7bd 43f8 c9bd e1ed 03bd fe6b dabd
00000310: 211d e6bd da43 a9bd aacb 8b3c 2fdd e53c
00000320: fbcf a63b 6495 b03c fc35 913a 177b 733d
00000330: 791c 23bd f56b a6bc 0eab a7bd fbfa 213c
00000340: 0e1d ee17 f14c 763d 08c9 513d 8ae1 2d3d
00000350: 5fab 8ebd a52b 903d 2d2c 66bd e218 6917
00000360: 3bac 0cbd e9d1 08bd 1a0c e7bb a062 0abd
00000370: 21c1 a1bb f5be ffbc 591e 973d dc29 243c
00000380: c115 a43c 0f45 3d17 b88a 38bd 36f2 78bc
00000390: b3ee 20bd 9193 d5bb 3dc9 3cbd 1291 263d
000003a0: e8e5 92bd 448c 4ebd bdc1 24bc b253 78bb
000003b0: 2eb9 2abd c5b3 2f3c 95c0 13be 9d51 17bc
000003c0: 8095 44bd fb18 b03d cdb7 b5bd 442d 2dbd
000003d0: 855f e1bd bc0b 803c 8709 093e 3064 0e3d
000003e0: 1d33 3bbd a60d adbd 946b 7abd e3a0 593d
000003f0: fb29 723c ef3d 273b 5c7d 8abd 9155 55bd

val_conv1.bias f4 [2]
0.16402838 -0.08284563
00000000: 0ef7 273e f8aa a9bd
