current_policy.model (torch_old, 478715 bytes, 15 tensors)

conv1.weight f4 [32, 4, 3, 3]
0	0xbd299e48	-0.041410714
1	0xbea64c1a	-0.32479936
2	0xbf7100e1	-0.94141966
3	0xbf074c46	-0.5285076
4	0xbd983dc6	-0.07433657
5	0xbf919944	-1.1374898
6	0x3d47e837	0.04880544
7	0xbeed7b41	-0.46383098
8	0xbf24c7b2	-0.6436721
9	0x3e536376	0.2064341
10	0x3f77a6bb	0.96738786
11	0x3f5b110b	0.8557288
12	0x3f8aaaf4	1.0833421
13	0xbe2ef863	-0.1708694
14	0x3f90d9a8	1.1316423
15	0x3f1cc27e	0.6123427
16	0x3ea0a5dc	0.3137654
17	0xc003802a	-2.0546975
18	0xbea0c877	-0.31402943
19	0xbe0525b4	-0.13002664
20	0x3d63c451	0.055607144
21	0xbe94e935	-0.29084173
22	0x3f62061a	0.8829056
23	0x3d0d5f16	0.03451451
24	0x3e43da05	0.19126137
25	0xbcd737f7	-0.026271803
26	0x3e351ed0	0.17687535
27	0x3edcaf04	0.43102276
28	0x3c9d0044	0.019165166
29	0xbe8ded69	-0.27720192
30	0xbb20e608	-0.0024551172
31	0xbd926961	-0.07149006
32	0xbe98ddf9	-0.29856852
33	0x3e2207cb	0.15823285
34	0x3cb81894	0.022472657
35	0xbd9a6517	-0.075388126
36	0xbf1f338f	-0.6218805
37	0x3ebcf67c	0.36906803
38	0x3e97f153	0.29676303
39	0xbf0593e0	-0.52178764
40	0x3eece6a2	0.4626971
41	0xbf6d61ae	-0.9272717
42	0xbe4d988e	-0.20077726
43	0xbdbb6dc8	-0.091517985
44	0xbe9f6b2a	-0.31136447
45	0x3f7bb5ea	0.98324454
46	0xbf5edcfe	-0.8705596
47	0x3f0fbb92	0.56145585
48	0xbe7ae53d	-0.2450151
49	0x3f0d60d7	0.5522589
50	0x3e8ede8c	0.27904165
51	0x3eee6f5e	0.4656934
52	0xbeb531e0	-0.35389614
53	0xbf7fec0a	-0.9996954
54	0x3dd8308e	0.10556136
55	0x3e3a6c0c	0.18205279
56	0x3d5807a1	0.05274165
57	0xbf4c3445	-0.79767257
58	0x3ef1ae5b	0.47203335
59	0xbd4164cf	-0.04721528
60	0x3d2a5616	0.041586004
61	0x3f32dbaa	0.6986643
62	0x3e6d811b	0.23193781
63	0xbedd6728	-0.43242764
64	0xbedf7809	-0.43646267
65	0xbf2bc1e8	-0.6709275
66	0xbe67d412	-0.22639492
67	0xbea4303b	-0.32068047
68	0xbf07dcdb	-0.53071374
69	0xbdd5450b	-0.104135595
70	0xbeef257f	-0.46708295
71	0xbf2ed371	-0.68291384
72	0xbe6250b0	-0.22101092
73	0xbf4b5d3b	-0.79439133
74	0x3ed27a22	0.41108805
75	0x3f19a6f7	0.60020393
76	0xbde1f446	-0.110329196
77	0xbf1235e7	-0.571135
78	0x3e83ac47	0.25717375
79	0x3e40b629	0.18819489
80	0xbf17d35d	-0.5930689
81	0xbdb0bb07	-0.08629423
82	0x3f4328a2	0.76233876
83	0xbe0224f1	-0.12709405
84	0xbe48b77d	-0.19601245
85	0x3eda8849	0.42682102
86	0x3f19c1cd	0.6006134
87	0xbeaa500a	-0.3326419
88	0xbed49872	-0.41522557
89	0xbf085758	-0.53258276
90	0xbd5b6cc4	-0.053570524
91	0x3e4b02c4	0.19825274
92	0xbec0c4bb	-0.37650093
93	0xbdb58713	-0.08863654
94	0x3f03287a	0.5123364
95	0xbe06161e	-0.13094375
96	0xbd929824	-0.07157925
97	0xbd427e1f	-0.04748356
98	0xbe3b9a31	-0.18320538
99	0xbe056793	-0.13027792
100	0xbe43ccde	-0.1912112
101	0xbda84846	-0.0821691
102	0xbdf02a0d	-0.117267706
103	0xbc5c049a	-0.0134288315
104	0xbdd40e69	-0.10354311
105	0xbeef549b	-0.46744236
106	0xbea5059f	-0.3223085
107	0xbf168fbe	-0.58813083
108	0xbf1b7e22	-0.6073934
109	0xbf2070a4	-0.62671876
110	0xbe4ccb14	-0.19999343
111	0x3f5d605e	0.8647517
112	0x3d89cfb2	0.06729068
113	0xbf080e3a	-0.5314671
114	0x3f301a32	0.6878997
115	0xbf303ee7	-0.6884598
116	0xbeee7541	-0.46573833
117	0x3e0cd889	0.13754477
118	0x3f7f7363	0.9978544
119	0x3f40018b	0.75002354
120	0xbcb1d579	-0.021708237
121	0x3e06d1da	0.1316599
122	0x3e937c40	0.28805733
123	0xbeb54036	-0.35400552
124	0x3eba7da9	0.36423996
125	0x3dd47d87	0.10375505
126	0x3ec77ed0	0.38963938
127	0xbd4f26db	-0.050574165
128	0xbf119fde	-0.5688456
129	0xbe82a5be	-0.25517076
130	0x3ec150a8	0.37756848
131	0xbe55864c	-0.20852011
132	0xbe82e70a	-0.25566894
133	0x3e9599a0	0.2921877
134	0xbdbd6bf6	-0.092491075
135	0xbe278b59	-0.1636175
136	0xbddfbba0	-0.109244585
137	0xbeb4840b	-0.3525699
138	0xbe7505f3	-0.2392805
139	0xbe3747a3	-0.17898421
140	0xbe8a7d35	-0.2704865
141	0xbd0867de	-0.03330218
142	0xbd496150	-0.04916507
143	0xbe7c18ba	-0.24618807
144	0xbefcaabe	-0.49349016
145	0xbe8d215a	-0.27564508
146	0x3ef14e59	0.47130087
147	0x3ead14c8	0.33804917
148	0xbf5d4b35	-0.8644288
149	0x3e8eeba8	0.27914166
150	0x3f6e369f	0.93052095
151	0x3e329277	0.17438684
152	0xbe5ab5aa	-0.21358362
153	0xbf0a7c95	-0.5409635
154	0xbf479cc1	-0.7797356
155	0xbec6e568	-0.38846898
156	0x3d338528	0.04382816
157	0x3f205a16	0.6263746
158	0xbf813e2b	-1.0097097
159	0xbf33aa1a	-0.7018143
160	0xbe14aa7d	-0.14518161
161	0x3f369fc7	0.7133755
162	0xbe8c2b95	-0.27377
163	0xbdda27b3	-0.10652103
164	0x3b641978	0.003480522
165	0x3ef7ad78	0.48374534
166	0xbf3f1777	-0.7464518
167	0x3daa92a6	0.08328752
168	0x3e63c69d	0.22243734
169	0x3f629e68	0.8852296
170	0xbf621565	-0.88313895
171	0xbe6cae88	-0.23113453
172	0xbec054d6	-0.37564725
173	0xbdf0327c	-0.11728379
174	0xbe9070b6	-0.28210992
175	0xbe8023a8	-0.25027204
176	0xbe295d60	-0.16539526
177	0xbe8ebfcf	-0.27880713
178	0xbeb8242d	-0.359651
179	0xbdf2c668	-0.11854249
180	0xbf8542b3	-1.041098
181	0xbeb46f8a	-0.35241348
182	0x3f6a6fc4	0.9157679
183	0x3e6a1fc8	0.22863686
184	0xbf2c48e1	-0.67298704
185	0x3ef5f346	0.48037165
186	0x3edf52f1	0.43617967
187	0xbf0c876c	-0.5489414
188	0xbef6fcb4	-0.48239672
189	0xbf0043fa	-0.50103724
190	0xbf563032	-0.8366729
191	0x3efe4359	0.49660757
192	0x3e2ef813	0.1708682
193	0xbf89e0d3	-1.0771736
194	0x3e23eb66	0.16007766
195	0xbf563959	-0.83681256
196	0x3f44baca	0.7684752
197	0x3ef800ee	0.4843821
198	0xbd9e47f9	-0.077285714
199	0x3d0ec440	0.034855127
200	0x3e1ba3c2	0.15199187
201	0xbf1c0545	-0.6094554
202	0x3e874d6e	0.26426262
203	0xbf24b776	-0.6434244
204	0x3e2ce3ac	0.16883725
205	0x3f0a7156	0.54079187
206	0x3f49a471	0.7876654
207	0xbeaa9ab6	-0.3332116
208	0xbee5251d	-0.44754878
209	0xbeecf34f	-0.4627938
210	0xbeef3c7a	-0.46725827
211	0xbf1678d9	-0.5877815
212	0xbf07d5ca	-0.5306059
213	0xbecb0b49	-0.39657047
214	0xbf07fdbf	-0.5312156
215	0xbf0e58a8	-0.5560403
216	0x3ebb8b60	0.36629772
217	0xbf14bc60	-0.5809994
218	0x3f9a6511	1.2062093
219	0x3ed18eb0	0.40929174
220	0x3bac96be	0.0052669933
221	0x3f564e40	0.8371315
222	0x3ee7ae73	0.45250282
223	0xbedbe506	-0.4294817
224	0xbe8e8b1a	-0.278405
225	0x3f110aa5	0.5665687
226	0xbe34449d	-0.17604299
227	0xbf9d2dd1	-1.2279607
228	0xbe0de371	-0.13856293
229	0xbd161dae	-0.0366494
230	0xbfb18bf7	-1.3870839
231	0xbfde721b	-1.7378572
232	0x3dafccbf	0.08583974
233	0x3e4aef94	0.19817954
234	0xbf2e9966	-0.6820282
235	0x3d584bb8	0.052806586
236	0xbeab4625	-0.33451954
237	0x3eb50f77	0.3536336
238	0x3de37a29	0.111072846
239	0x3edbfd15	0.42966524
240	0xbec329a8	-0.3811772
241	0x3d4939a0	0.04912722
242	0xbecd1220	-0.4005289
243	0x3e5b4d8f	0.21416305
244	0xbd39d331	-0.045367423
245	0xbdcc3f6e	-0.09973036
246	0x3ee26446	0.44217128
247	0xbdd18125	-0.102297105
248	0x3d20dae4	0.03927125
249	0x3ee7417e	0.45167154
250	0x3e7aaddf	0.24480389
251	0x3dfb3620	0.12266183
252	0xbf46954d	-0.77571565
253	0xbf1c83ce	-0.6113862
254	0xbf8c50e4	-1.0962186
255	0xbf89eb5c	-1.0774951

conv1.bias f4 [32]
0	0xbe50dea2	-0.20397428
1	0x3e6340aa	0.22192636
2	0xbf30629c	-0.68900466
3	0xbf0f8eaa	-0.56077063
4	0xbe9a7dba	-0.30174047
5	0xbe852582	-0.2600518
6	0xbf1ce215	-0.61282474
7	0xbe8a7ee8	-0.27049947
8	0xbf36202c	-0.7114284
9	0xbeabb5bb	-0.33537087
10	0xbd8e5bd8	-0.069511116
11	0xbf0c0b5f	-0.5470485
12	0xbd6fc234	-0.058534816
13	0xbf3657ce	-0.7122773
14	0xbea4e4ec	-0.32205904
15	0xbeb5cf71	-0.35509828
16	0x3c0a6264	0.00844631
17	0xbe935046	-0.2877218
18	0xbe1aab7b	-0.15104477
19	0xbeee0520	-0.46488285
20	0x3e798a56	0.24369177
21	0x3e338888	0.17532551
22	0xbecda421	-0.40164283
23	0xbebcfa1b	-0.36909565
24	0xbe327047	-0.17425643
25	0xbe8139a2	-0.25239283
26	0xbec0c535	-0.37650457
27	0xbf1d1fcf	-0.6137666
28	0xbe92b3c9	-0.2865279
29	0xbe61b20d	-0.22040577
30	0x3d05b458	0.032642692
31	0xbe8d4ccc	-0.27597654

conv2.weight f4 [64, 32, 3, 3]
0	0xad49442b	-1.14406635e-11
1	0x29a64c10	7.3850756e-14
2	0xacb9c788	-5.2801687e-12
3	0xad8dec12	-1.613468e-11
4	0x2f12f5a9	1.3365899e-10
5	0x2cb99865	5.2749354e-12
6	0xae02eac5	-2.9767095e-11
7	0x2e1eaecd	3.6080295e-11
8	0x2eb88438	8.390838e-11
9	0x2f38c48d	1.6804531e-10
10	0xb03b75f9	-6.8197853e-10
11	0xb0388e47	-6.7141e-10
12	0xae8558df	-6.0639264e-11
13	0x2f4c72ee	1.8594523e-10
14	0x2f0f52a5	1.3035135e-10
15	0xad194992	-8.713379e-12
16	0x2de18969	2.564056e-11
17	0x2dadc624	1.9755815e-11
18	0xac92e097	-4.174504e-12
19	0xae5af2f5	-4.978325e-11
20	0x2f09ab0b	1.2520844e-10
21	0x2ee92598	1.0602291e-10
22	0xb038d060	-6.723493e-10
23	0x2f098afe	1.2509457e-10
24	0x2e0a2af4	3.1415717e-11
25	0xaf6e9470	-2.169871e-10
26	0x2eaa8c3e	7.755617e-11
27	0x2b60691e	7.9726666e-13
28	0x2b67e852	8.2390095e-13
29	0xab53cc2a	-7.5245593e-13
30	0x2beb4716	1.6717485e-12
31	0xab9d6180	-1.1182583e-12
32	0x29bd5df0	8.4095816e-14
33	0xab92009f	-1.0374096e-12
34	0x2a81427a	2.296113e-13
35	0x2a6a7310	2.0823295e-13
36	0xb4351e1b	-1.6867891e-07
37	0xb32140be	-3.7544616e-08
38	0xb36a0ac4	-5.4492162e-08
39	0xb58c4c39	-1.0452997e-06
40	0xb64c814e	-3.0473634e-06
41	0xb5a23288	-1.2084647e-06
42	0xb560b5fa	-8.3711313e-07
43	0xb5de9cd3	-1.6585931e-06
44	0xb3138a20	-3.435173e-08
45	0x2b493c61	7.149334e-13
46	0x2ed1dc82	9.54339e-11
47	0xac0d82ef	-2.0109988e-12
48	0xab2ca868	-6.1340386e-13
49	0xac05c013	-1.900706e-12
50	0x2dffddc1	2.9088622e-11
51	0xacac2bfb	-4.893417e-12
52	0xad0cc918	-8.00273e-12
53	0x2ac2e1af	3.4617922e-13
54	0xab4ab2da	-7.2013023e-13
55	0x2d1ad512	8.801198e-12
56	0x2d71f296	1.3753129e-11
57	0xadf5af98	-2.7931255e-11
58	0x2cc4f4e8	5.597845e-12
59	0xae255060	-3.7588044e-11
60	0x2caf6a4e	4.9856013e-12
61	0x2cbdb224	5.3914807e-12
62	0xae1e7559	-3.6029266e-11
63	0x29a2d7bc	7.231669e-14
64	0xab2d3181	-6.1530647e-13
65	0x2b4f6df8	7.3693785e-13
66	0xaac73171	-3.5383808e-13
67	0x2b3b5b27	6.6562245e-13
68	0x2b5aaf3b	7.769234e-13
69	0xab961018	-1.0662608e-12
70	0x2b12235b	5.1918685e-13
71	0x2b42d8ee	6.9223696e-13
72	0x2b905d59	1.0257725e-12
73	0xac39f5e3	-2.6426576e-12
74	0x2be63429	1.635696e-12
75	0xac3a64c9	-2.6488137e-12
76	0xac8f0c08	-4.06564e-12
77	0x2babbec9	1.2203234e-12
78	0x29eb8973	1.045994e-13
79	0xa9d672ec	-9.523445e-14
80	0xab0305a6	-4.654839e-13
81	0x2b16490b	5.339207e-13
82	0xab571e84	-7.6425693e-13
83	0x2b6fcd61	8.519488e-13
84	0xab5d119f	-7.8539426e-13
85	0xaaefc37b	-4.259057e-13
86	0xaa8533be	-2.366145e-13
87	0xaa4f55c2	-1.8415047e-13
88	0xaba89024	-1.1977125e-12
89	0xaab342ec	-3.1843224e-13
90	0xaf9f83c2	-2.901555e-10
91	0xb0e23430	-1.6458497e-09
92	0xb19179e1	-4.2339114e-09
93	0x30ed17ed	1.725082e-09
94	0xb3b72a99	-8.52935e-08
95	0x325dedb3	1.291794e-08
96	0xafa5df59	-3.0172023e-10
97	0x316d69e8	3.454824e-09
98	0x31afab6a	5.112658e-09
99	0x2a8e8ef3	2.5323458e-13
100	0x2d4f7898	1.1793365e-11
101	0xac503203	-2.958634e-12
102	0x2c9780e0	4.305986e-12
103	0xac064637	-1.9081522e-12
104	0xabd2b5ec	-1.4971891e-12
105	0x2b6426d9	8.1055784e-13
106	0x2c97cd0e	4.3144438e-12
107	0x2c0526ec	1.8922043e-12
108	0x2a173c1a	1.3432346e-13
109	0xa7b6bd30	-5.0720265e-15
110	0xaa143f44	-1.316699e-13
111	0xaaf286da	-4.3081408e-13
112	0x2a96786d	2.6728915e-13
113	0x29a37914	7.259658e-14
114	0xa9a0453f	-7.1174396e-14
115	0x2943e420	4.3496565e-14
116	0xaa4f1115	-1.839122e-13
117	0xab962e93	-1.0671068e-12
118	0x2bd4f989	1.5132766e-12
119	0x2b87e89d	9.65689e-13
120	0x2a3a3d7c	1.654145e-13
121	0x2b3c4b80	6.6895794e-13
122	0x2baf3f47	1.2452061e-12
123	0x2a38a360	1.6399165e-13
124	0xaa7c8e74	-2.243152e-13
125	0x2a9be4f5	2.7692402e-13
126	0xac0d2c22	-2.0061804e-12
127	0x2b6320fb	8.069237e-13
128	0xab9fe38f	-1.136079e-12
129	0x2bb67519	1.2964379e-12
130	0xab989b57	-1.0843365e-12
131	0xab5caf1a	-7.8402703e-13
132	0x2c2d7814	2.4651435e-12
133	0x2c892c69	3.8987047e-12
134	0xaa7c1f6c	-2.2392998e-13
135	0xaa0344e7	-1.1659043e-13
136	0x2ab13300	3.1476904e-13
137	0xab657752	-8.1522733e-13
138	0xaae96336	-4.1457956e-13
139	0x2b0a3fd4	4.911603e-13
140	0x2b797210	8.8620864e-13
141	0xaaece848	-4.20832e-13
142	0x2aa4d651	2.9280964e-13
143	0xab2e79a9	-6.1986055e-13
144	0xb67d1484	-3.771188e-06
145	0xb534e517	-6.7388595e-07
146	0xb79a403d	-1.8388144e-05
147	0xb6ffad63	-7.619777e-06
148	0xb9049677	-0.00012644553
149	0x36563819	3.1921138e-06
150	0xb7986b6b	-1.8169832e-05
151	0xb7de64c4	-2.6511385e-05
152	0xb7d679c0	-2.5567482e-05
153	0xad7a4f90	-1.4228521e-11
154	0x2c42db0a	2.769065e-12
155	0xad2446e2	-9.33806e-12
156	0xaf296bb2	-1.5408722e-10
157	0x2e9e46de	7.197597e-11
158	0xaf32ec11	-1.6272873e-10
159	0xaf488001	-1.823537e-10
160	0xb00ab77b	-5.046485e-10
161	0x30656e5a	8.3466534e-10
162	0x2c61e2be	3.210029e-12
163	0xaa6a4b20	-2.0809439e-13
164	0x2bae4320	1.2382075e-12
165	0x2ce5dace	6.5328637e-12
166	0xad5a8c2e	-1.24229915e-11
167	0x2a82c4d8	2.3229227e-13
168	0x2caa57af	4.8414254e-12
169	0xad3b1bfc	-1.0635933e-11
170	0xababc79c	-1.2205684e-12
171	0x282f6160	9.735566e-15
172	0x2bc1497a	1.3733869e-12
173	0xab8ef4d0	-1.0157656e-12
174	0x2b885a4d	9.688445e-13
175	0xa990be66	-6.4279135e-14
176	0xab36989e	-6.487119e-13
177	0x2b460205	7.0346534e-13
178	0xab3d9094	-6.734693e-13
179	0x2a6f4a8d	2.1253329e-13
180	0xaf3e4231	-1.7303915e-10
181	0xb05684fa	-7.804172e-10
182	0x30c64632	1.4426347e-09
183	0x31bec126	5.551686e-09
184	0xb51fa46d	-5.9471387e-07
185	0xb056b070	-7.810348e-10
186	0xb218ea61	-8.900856e-09
187	0xb0968b86	-1.0953591e-09
188	0xb2b1843f	-2.066565e-08
189	0xb0209256	-5.8415617e-10
190	0x301f1d99	5.7885924e-10
191	0xaed7de22	-9.816527e-11
192	0x300b5d4f	5.0700505e-10
193	0x30d2b7df	1.533177e-09
194	0x32007f6d	7.479554e-09
195	0xaecd2318	-9.3285546e-11
196	0x3087746d	9.855633e-10
197	0xb0a36770	-1.188921e-09
198	0x2b7e8a67	9.0431e-13
199	0x2bc9b785	1.4332846e-12
200	0xaa0ba682	-1.2403449e-13
201	0xabe557ba	-1.6295778e-12
202	0x2bd91cf5	1.5426815e-12
203	0x297d1366	5.619411e-14
204	0x2b8a77d2	9.838747e-13
205	0x2bccfcbd	1.4565221e-12
206	0xabfd1f52	-1.7985424e-12
207	0xabef9f9b	-1.7026271e-12
208	0x2bf73dd8	1.7567571e-12
209	0x2b9db0ac	1.1204557e-12
210	0xabfbca91	-1.7890846e-12
211	0x2c0ea914	2.027327e-12
212	0xaa9122a6	-2.5781216e-13
213	0x2b6fa012	8.5132e-13
214	0xab7756f7	-8.7872716e-13
215	0x2b271822	5.936381e-13
216	0x2c83749e	3.736191e-12
217	0xab1d50b1	-5.5889587e-13
218	0x2c4c5c4c	2.9041379e-12
219	0xac5a1a36	-3.0994213e-12
220	0x2c6ab903	3.3356102e-12
221	0xabae197f	-1.237052e-12
222	0x2a652d1a	2.0354934e-13
223	0x2b66938a	8.1917166e-13
224	0x2c06ef95	1.917554e-12
225	0xab5500c4	-7.5673864e-13
226	0xa9d0b3f1	-9.2682704e-14
227	0xaba41423	-1.165849e-12
228	0xaa55d513	-1.8992125e-13
229	0x2ac3134a	3.4652343e-13
230	0x2bd845ca	1.5367093e-12
231	0x2b6b9e38	8.3708344e-13
232	0xaab50312	-3.215419e-13
233	0x2a9880b3	2.7089927e-13
234	0x2b994dc9	1.0892894e-12
235	0xacfb83a4	-7.148464e-12
236	0x2a653981	2.0359236e-13
237	0xab9cfda4	-1.1154866e-12
238	0x2be81e90	1.6493074e-12
239	0xac0e56ca	-2.0227591e-12
240	0x2cb2c609	5.0810506e-12
241	0xa93213ac	-3.9541002e-14
242	0x2bde2d7d	1.5786674e-12
243	0xaa897c71	-2.4422437e-13
244	0xaa416c93	-1.7179513e-13
245	0x28c75720	2.2131223e-14
246	0xab928f24	-1.0413653e-12
247	0xaa12d7b6	-1.3042245e-13
248	0xab9218e7	-1.0380836e-12
249	0xac3195be	-2.5236336e-12
250	0xaadac508	-3.8861297e-13
251	0xac2cc483	-2.4551756e-12
252	0xac97c14a	-4.3131375e-12
253	0x2c37a12f	2.609534e-12
254	0x2c227a97	2.3089636e-12
255	0xac50e28b	-2.9684334e-12

conv2.bias f4 [64]
0	0xbc34d8ca	-0.011038015
1	0xbd9142bc	-0.07092807
2	0xbe8d4555	-0.2759196
3	0xbf0476c0	-0.517437
4	0xbf125038	-0.57153654
5	0xbe86bc36	-0.2631547
6	0xbde537b7	-0.111922674
7	0xbdbc49a4	-0.09193733
8	0xbdb98205	-0.090580024
9	0xbddc725e	-0.10764001
10	0xbf6425a2	-0.89119923
11	0xbdc2213c	-0.09478995
12	0xbe9be7d0	-0.30450296
13	0xbd59f931	-0.053216163
14	0xbca34809	-0.01993181
15	0xbca08016	-0.019592326
16	0xbcf6331a	-0.030053664
17	0xbe91e748	-0.28496766
18	0xbd509594	-0.0509239
19	0xbf33a5f9	-0.7017513
20	0xbd4386fa	-0.047736146
21	0xba84532d	-0.0010095589
22	0xbe864a9e	-0.26228803
23	0xbea8a765	-0.32940212
24	0xbcce1f0b	-0.025161287
25	0xbcef38a3	-0.029201811
26	0xbe793365	-0.24336012
27	0xbf12e86b	-0.5738589
28	0xbca45de4	-0.020064302
29	0xbda09662	-0.07841183
30	0xbb8552b2	-0.004068696
31	0xbd257a3a	-0.040399767
32	0xbbe2611b	-0.0069085485
33	0xbeb43fd8	-0.3520496
34	0xbeea37a4	-0.45745575
35	0xbed0788e	-0.40716976
36	0xbd3426bd	-0.043982256
37	0xbf115d9e	-0.56783473
38	0xbd824e60	-0.06362605
39	0xbd5b521f	-0.053545114
40	0xbd115869	-0.035484705
41	0xbe829639	-0.25505236
42	0xbcb7fb22	-0.022458617
43	0xbd003b03	-0.031306278
44	0xbe12b62c	-0.14327306
45	0xbe8dbdb3	-0.27683792
46	0xbb48805f	-0.0030594093
47	0x3c94fd3b	0.018187156
48	0xbda675f3	-0.08127966
49	0xbddb9120	-0.1072104
50	0xbe0a5bf8	-0.13511646
51	0x3c18c820	0.009325057
52	0xbde34f03	-0.11099055
53	0xbed5a1a1	-0.41724876
54	0xbe24c209	-0.16089644
55	0xbdeeebf8	-0.11666101
56	0xbcd3e179	-0.02586435
57	0xbdb28ff2	-0.08718862
58	0xbca5135e	-0.020150837
59	0xbdc97b74	-0.09838
60	0xbbff14f2	-0.0077844793
61	0xbe951190	-0.29114962
62	0xbea0ffdb	-0.31445202
63	0xbd138cca	-0.03602294

conv3.weight f4 [128, 64, 3, 3]
0	0xaaca517f	-3.5938957e-13
1	0xaa295324	-1.503906e-13
2	0xaaeb711e	-4.1822877e-13
3	0x2ac02e06	3.4137986e-13
4	0x2abb7209	3.3297e-13
5	0xaad6f2ae	-3.818243e-13
6	0x2ae58879	4.0773269e-13
7	0xaa102408	-1.280227e-13
8	0x2b12b85c	5.212547e-13
9	0x2ca9dad3	4.8275633e-12
10	0xacbd3668	-5.3777434e-12
11	0xab2210a8	-5.7577077e-13
12	0xada1f289	-1.8411288e-11
13	0x2ca4f371	4.6881878e-12
14	0x2d0571b4	7.585422e-12
15	0x2cb6721e	5.1854207e-12
16	0xad543546	-1.2062634e-11
17	0x2c6032ae	3.1860447e-12
18	0x2f15b1e1	1.3614666e-10
19	0x2f8e24ea	2.5855879e-10
20	0xae044fa0	-3.0084046e-11
21	0xac063e3c	-1.9077092e-12
22	0x2e378ce1	4.1734508e-11
23	0x32563004	1.2467357e-08
24	0x2f07bd24	1.2345375e-10
25	0x2dffb633	2.9071056e-11
26	0xb04623a8	-7.208265e-10
27	0x2b2a6ff5	6.0551504e-13
28	0x2a37ffaa	1.6342366e-13
29	0x2bab1e99	1.2158773e-12
30	0x2b21bdb5	5.746196e-13
31	0x29d4c65a	9.4491e-14
32	0xab0bc369	-4.9653906e-13
33	0xab26bf7e	-5.9240796e-13
34	0xa9e021e4	-9.9534774e-14
35	0xaad67905	-3.809801e-13
36	0x2ae11510	3.9982644e-13
37	0x2c45abdc	2.8090785e-12
38	0xad2e63f4	-9.912949e-12
39	0x2c00aa6f	1.8284504e-12
40	0x2c05d9f3	1.9021423e-12
41	0x29fdf8a8	1.1278592e-13
42	0xabf60a7b	-1.748226e-12
43	0x2c255417	2.349459e-12
44	0x2bf3d36e	1.7324872e-12
45	0xab564f90	-7.613849e-13
46	0x2ca3d8f3	4.656825e-12
47	0x2b3cf9ae	6.713752e-13
48	0x2c1d5f09	2.2363797e-12
49	0xacf3a98d	-6.9252993e-12
50	0xac9507f8	-4.2357194e-12
51	0xabac4624	-1.2240803e-12
52	0xab13f167	-5.2559904e-13
53	0xac00c165	-1.829725e-12
54	0x2c2f9e5e	2.4956907e-12
55	0x2c2f2c02	2.4893425e-12
56	0xac9cd755	-4.4576933e-12
57	0x2c07598f	1.9234369e-12
58	0x2bb19232	1.2617184e-12
59	0xac484c68	-2.8464123e-12
60	0x2c157e58	2.1244308e-12
61	0xabf395f8	-1.7307813e-12
62	0x2b8dc610	1.0073626e-12
63	0x2c4a9a76	2.879167e-12
64	0xab9bff9f	-1.1084362e-12
65	0x2bdd1cec	1.5711022e-12
66	0x2b6d7dc8	8.437387e-13
67	0xac233721	-2.3194296e-12
68	0xab5e127b	-7.889589e-13
69	0x2a9e706a	2.814444e-13
70	0x2bffa3b6	1.8164279e-12
71	0xab9f498b	-1.1318042e-12
72	0xb0592d6d	-7.9008694e-10
73	0xb014dde5	-5.415742e-10
74	0xb5b8a159	-1.3756027e-06
75	0x2f9b1170	2.8206726e-10
76	0x2ee4f45e	1.0411648e-10
77	0xb370a22b	-5.6026845e-08
78	0xae1358e0	-3.3502867e-11
79	0x2fd3fad7	3.855891e-10
80	0x31543c3b	3.0884297e-09
81	0xaa16cdc8	-1.3394071e-13
82	0x2a9a1f88	2.7377775e-13
83	0x2b7a7a20	8.8987324e-13
84	0x2bfe03ea	1.8048872e-12
85	0x2bb14ed4	1.2598486e-12
86	0x2ab49486	3.2077482e-13
87	0x2af03b23	4.2673598e-13
88	0x2ba977f8	1.204147e-12
89	0x2a857db1	2.3712762e-13
90	0x2dcc6496	2.3236784e-11
91	0x2dc6a9d3	2.2585411e-11
92	0xad3e1729	-1.0805392e-11
93	0xac7afc9c	-3.5667363e-12
94	0x2cdf9dea	6.355573e-12
95	0xae3ab336	-4.2450675e-11
96	0x2d0da59c	8.051695e-12
97	0x2c348383	2.5652542e-12
98	0x2aad6840	3.080331e-13
99	0x2bf992ee	1.7733295e-12
100	0x2c0547b3	1.8940238e-12
101	0xabf96625	-1.7720865e-12
102	0x2c380e40	2.6155883e-12
103	0x2a71f554	2.1490215e-13
104	0xaa94b37c	-2.6414624e-13
105	0x2b972f3f	1.0742309e-12
106	0x2a554568	1.894228e-13
107	0x28da8c9a	2.4263838e-14
108	0x2bc2183e	1.3791258e-12
109	0x2aa7335d	2.97008e-13
110	0x2b9563a6	1.0614745e-12
111	0x2bba7ee0	1.325131e-12
112	0xaadb7a43	-3.898705e-13
113	0x2a0c805c	1.2479031e-13
114	0xab5357b9	-7.5084e-13
115	0xac8105aa	-3.6670294e-12
116	0x2bae24e4	1.2373683e-12
117	0x2ccd8637	5.8413513e-12
118	0xadb5d8c2	-2.0673577e-11
119	0x2f7a709e	2.2777377e-10
120	0x2d5f8257	1.2705024e-11
121	0xacdc1a50	-6.2556973e-12
122	0xaea0c173	-7.310321e-11
123	0xae38ff89	-4.2063717e-11
124	0xad8660b3	-1.527698e-11
125	0xad06f6fd	-7.6718605e-12
126	0x2b8478fa	9.412742e-13
127	0xab915696	-1.0326902e-12
128	0xaacf8b83	-3.6867392e-13
129	0xab7ffb76	-9.094317e-13
130	0x2b0495ac	4.710353e-13
131	0xa9f52a6c	-1.0887545e-13
132	0xab39476a	-6.582431e-13
133	0x2ae52392	4.0703253e-13
134	0x2b01a206	4.605486e-13
135	0xac6b3120	-3.3422778e-12
136	0x2a61b5f0	2.0047137e-13
137	0x2aa6eef4	2.965333e-13
138	0xab44503c	-6.9744536e-13
139	0xac556d98	-3.0329957e-12
140	0xac20808e	-2.280873e-12
141	0xac2d9941	-2.4669852e-12
142	0xacbcf938	-5.37095e-12
143	0x2c39932d	2.637178e-12
144	0x2d27248d	9.500967e-12
145	0x2d6fba0e	1.36268895e-11
146	0xac96aff3	-4.2827907e-12
147	0xace90561	-6.6228555e-12
148	0xab57f740	-7.672647e-13
149	0x2e23bda0	3.723033e-11
150	0xad2f3933	-9.960299e-12
151	0x2cc3992a	5.559238e-12
152	0x2d827553	1.4831391e-11
153	0xad193dc2	-8.710756e-12
154	0x2be45fad	1.622693e-12
155	0x2d0cb26b	7.997695e-12
156	0x2cb8a7ec	5.2482376e-12
157	0x2d61984d	1.2823587e-11
158	0xac504c59	-2.960096e-12
159	0xac9fbb3e	-4.53984e-12
160	0x2d2f8dc3	9.979076e-12
161	0xad8b53d3	-1.5839696e-11
162	0x2c0d3a17	2.0069551e-12
163	0x2b1594d8	5.3141996e-13
164	0x2bc2448b	1.3803554e-12
165	0x2aa6c45e	2.962378e-13
166	0xac0c97f4	-1.9979548e-12
167	0xaba90887	-1.2010539e-12
168	0xab18d2b9	-5.4293684e-13
169	0xab314965	-6.298489e-13
170	0xab6a3b33	-8.3215656e-13
171	0x2ab0d403	3.1410993e-13
172	0xa9dcb2b0	-9.80096e-14
173	0x2a8dd73a	2.5195975e-13
174	0xab2536bd	-5.869574e-13
175	0x2a993d38	2.722074e-13
176	0xab14a218	-5.2805113e-13
177	0x29ad880a	7.7063423e-14
178	0x2b3ac7b9	6.6357645e-13
179	0x2ae121a0	3.999136e-13
180	0x29150894	3.3092086e-14
181	0xaa4c85c2	-1.8165246e-13
182	0x2b47d115	7.098916e-13
183	0x2b063a88	4.768759e-13
184	0x29972c8a	6.7134734e-14
185	0x2ae79f38	4.1144323e-13
186	0xaa86651e	-2.3873346e-13
187	0x2bb3be8b	1.2771601e-12
188	0xab889238	-9.703965e-13
189	0xa7ef3480	-6.6392746e-15
190	0xab6f852d	-8.5094675e-13
191	0x2b185397	5.411725e-13
192	0xaa446112	-1.7441975e-13
193	0xaa97bef6	-2.6955494e-13
194	0xabb94223	-1.3163397e-12
195	0xaadef21e	-3.9603124e-13
196	0xab4e585e	-7.3308536e-13
197	0xaa57dbdd	-1.9172116e-13
198	0xabf3782f	-1.7299546e-12
199	0xad916193	-1.6527923e-11
200	0x2cc16f14	5.497722e-12
201	0x2d5964ff	1.23574475e-11
202	0x2d0df5cb	8.069499e-12
203	0x2e2906a0	3.8432035e-11
204	0x2e0b0aba	3.1614468e-11
205	0xad6fb908	-1.3626662e-11
206	0xad3310f1	-1.0178734e-11
207	0x2b09d6ac	4.8970094e-13
208	0xaac3b056	-3.4761316e-13
209	0xabdd15c7	-1.5709039e-12
210	0x2aba14fd	3.30548e-13
211	0x2a002c58	1.1384069e-13
212	0x2af3800a	4.3254316e-13
213	0xabc56fb2	-1.4028694e-12
214	0x2ac4e0ab	3.497249e-13
215	0xab37aaf4	-6.5251905e-13
216	0x29c93988	8.936173e-14
217	0x2b9ec82b	1.1282133e-12
218	0x2b952f1c	1.0600162e-12
219	0xab5220af	-7.4652345e-13
220	0x2b55cb18	7.595465e-13
221	0x2b5a11b5	7.747373e-13
222	0xab05284f	-4.730703e-13
223	0xaa345ef4	-1.6020155e-13
224	0xaae05a14	-3.9852897e-13
225	0xa9f83334	-1.1022295e-13
226	0xa938ad90	-4.100675e-14
227	0xab3739ce	-6.509488e-13
228	0xaa049e58	-1.1778892e-13
229	0x2af1c3cf	4.294607e-13
230	0xab95b658	-1.0637697e-12
231	0xaaca92de	-3.5984318e-13
232	0xab8a1f85	-9.814238e-13
233	0x2b321585	6.326817e-13
234	0x2b543660	7.539299e-13
235	0xa8b0e897	-1.9640795e-14
236	0xabd4ebe4	-1.5128979e-12
237	0x2bcc275b	1.4505995e-12
238	0x2b9a99f4	1.0985089e-12
239	0xab4f3797	-7.361832e-13
240	0x2c57a4ba	3.064478e-12
241	0x2c573c89	3.0586941e-12
242	0x2c2b8f93	2.4380261e-12
243	0xad6e7dd8	-1.3556677e-11
244	0x2ce3fada	6.479578e-12
245	0x2d502270	1.1831078e-11
246	0xad38d0c4	-1.0505544e-11
247	0x2c9c995d	4.4508134e-12
248	0x2d9aac51	1.7584297e-11
249	0x2cdfae8a	6.357419e-12
250	0xad2ad870	-9.71144e-12
251	0x2cd7cc6f	6.133364e-12
252	0x2a390776	1.6433889e-13
253	0xab1f7792	-5.6654085e-13
254	0xaa3a146c	-1.6527204e-13
255	0x2b1410f8	5.260371e-13

conv3.bias f4 [128]
0	0xb421d09f	-1.507019e-07
1	0xbe8ee007	-0.27905294
2	0xbcb47448	-0.022028103
3	0xbe0f8506	-0.14015588
4	0xbdba801e	-0.09106468
5	0x3e173c17	0.14769016
6	0xbcb75f01	-0.022384169
7	0xbecd5015	-0.4010016
8	0xbc9543e9	-0.018220859
9	0x3ec5c267	0.3862488
10	0xb927597b	-0.00015959695
11	0xbeb00398	-0.34377742
12	0xbe9c00ff	-0.3046951
13	0xbaf492dc	-0.001865949
14	0xbca222ce	-0.019791987
15	0xbed44f6e	-0.4146685
16	0xbe0d7c5a	-0.13816968
17	0xbe38e947	-0.18057738
18	0xbc1cfb20	-0.009581357
19	0xbc75ecaa	-0.015010038
20	0xbebac68d	-0.36479607
21	0xbf0050b7	-0.5012316
22	0xbf0e5f97	-0.5561461
23	0xbeceff63	-0.4042922
24	0xbe715c39	-0.23570336
25	0xbd1efc12	-0.03881461
26	0xbe246adf	-0.16056393
27	0x3da13f7d	0.078734376
28	0xbeb61998	-0.355664
29	0xbee41c0e	-0.44552654
30	0xbcd3c3b8	-0.025850162
31	0xb546d3ce	-7.4068964e-07
32	0x3e8f231f	0.27956483
33	0x3defad86	0.11703019
34	0xbec18348	-0.37795472
35	0xbe7785bb	-0.24172108
36	0xbe2d6e59	-0.16936626
37	0x3d1d3779	0.03838298
38	0xbd312ffb	-0.04325865
39	0xbc950eaa	-0.018195469
40	0xbe342175	-0.17590888
41	0xbe98fe6c	-0.29881608
42	0xbe85448b	-0.26028857
43	0xbe304b95	-0.17216332
44	0xba9fc6a6	-0.0012189939
45	0x3e936c9f	0.2879381
46	0xbc414819	-0.011796975
47	0xbbd85376	-0.006601746
48	0xbbea5f30	-0.0071524605
49	0xbee727a3	-0.45147428
50	0xbe20b409	-0.15693678
51	0xbf35dab3	-0.71036834
52	0xbf177d4d	-0.5917557
53	0xbd03c516	-0.032170378
54	0xbf02b04b	-0.5105025
55	0x3e35e769	0.17764057
56	0xbe294534	-0.16530305
57	0xbcb516fa	-0.022105683
58	0xbae6b65d	-0.0017601956
59	0xbdd2f8df	-0.10301375
60	0xbd746a77	-0.059671845
61	0xbe909ae8	-0.28243184
62	0x3e84fb57	0.25973007
63	0xbdd3ed40	-0.10347986
64	0xbe1fa385	-0.15589722
65	0xbe0404d6	-0.1289247
66	0xbb92174c	-0.0044583436
67	0xbc41215b	-0.011787738
68	0xbd9befca	-0.076140955
69	0xbe8f1924	-0.27948868
70	0xbde4cc5a	-0.111717895
71	0xbec924cc	-0.39285886
72	0xbca1749b	-0.019708922
73	0xbd327304	-0.04356672
74	0xbea78bfc	-0.32723987
75	0xbc6285ee	-0.013825877
76	0xbcaaa88c	-0.020832323
77	0xbe5581ef	-0.20850347
78	0xbe8da2dd	-0.27663317
79	0xbc73dc37	-0.014884046
80	0xbf07f352	-0.5310565
81	0xbc3ff823	-0.011716875
82	0xbecee0c4	-0.40405858
83	0xbd3755f8	-0.04475972
84	0xbbcbebd7	-0.0062231827
85	0xbe247912	-0.1606181
86	0xbecc2369	-0.39870766
87	0xbdb96903	-0.090532325
88	0xbe89204d	-0.26782456
89	0xbe725ab7	-0.23667417
90	0x3e237c6a	0.15965429
91	0xbf005f61	-0.50145537
92	0xbe9fd34c	-0.31215894
93	0xbb5a210a	-0.0033283853
94	0xbda28d18	-0.07937068
95	0xbe01d915	-0.12680466
96	0xbea1f2dd	-0.31630602
97	0x3d49629d	0.04916631
98	0x3d4ebbad	0.05047195
99	0xbe35c4b4	-0.17750818
100	0xb9299208	-0.00016171497
101	0xbf0b3361	-0.54375273
102	0xbe3114b6	-0.17293057
103	0xbc9ee0d1	-0.01939431
104	0xbf0a7fd7	-0.5410132
105	0xbec59db3	-0.38596877
106	0xba38733f	-0.0007036216
107	0xbeb5454c	-0.35404432
108	0x3c8fb55f	0.01754254
109	0xbc47a0dd	-0.012184349
110	0x3e7a6fe5	0.24456747
111	0xbe42004c	-0.18945426
112	0xbbf59fb9	-0.007495847
113	0xbe97c301	-0.29640964
114	0xbd1db818	-0.038505644
115	0xbd2a92cf	-0.041643914
116	0xbe4ecf87	-0.20196353
117	0xbdf0598d	-0.117358305
118	0xbecdc2c2	-0.4018765
119	0x3ebd07de	0.36920065
120	0xbe9d2355	-0.3069102
121	0xbe803b33	-0.25045165
122	0xbc50fbdb	-0.0127553595
123	0x3e4845b5	0.19557841
124	0xbc092005	-0.00836945
125	0xbc29ada5	-0.0103563415
126	0xbe5864ba	-0.21132174
127	0xbef6d5e2	-0.48210055

act_conv1.weight f4 [4, 128, 1, 1]
0	0xaaed30e9	-4.2133595e-13
1	0xab4a3083	-7.183214e-13
2	0x2a9eda90	2.8218096e-13
3	0xab81675e	-9.194691e-13
4	0x2a11b184	1.2940175e-13
5	0x29f2246c	1.0753277e-13
6	0xaaad2230	-3.0754696e-13
7	0x2b7a2d0c	8.8880357e-13
8	0xab738df4	-8.652794e-13
9	0x2b6814b6	8.24517e-13
10	0xab6b8398	-8.3671394e-13
11	0x2b8985a4	9.771528e-13
12	0x292bf520	3.818224e-14
13	0x2bd13ee9	1.4867804e-12
14	0x39d03f2c	0.00039719918
15	0xaaa6b8b0	-2.9615676e-13
16	0x3711d133	8.6913815e-06
17	0x2a5dcbce	1.9699452e-13
18	0xab9b745b	-1.1045708e-12
19	0x2a7da24a	2.252722e-13
20	0x2bb6e8ba	1.2996472e-12
21	0xab9edee0	-1.1288435e-12
22	0x2a94b2ae	2.6414065e-13
23	0x2a17ecd8	1.3493666e-13
24	0xabbe936c	-1.354123e-12
25	0xab820b25	-9.240149e-13
26	0x2a194516	1.3613099e-13
27	0xb97b0168	-0.00023937749
28	0xab0dc48e	-5.036604e-13
29	0x2b8935ba	9.749348e-13
30	0xaa6a0272	-2.0784223e-13
31	0x2adb5da5	3.8967194e-13
32	0x2ad8de10	3.8523395e-13
33	0x2b16b3e7	5.354037e-13
34	0x28af71a0	1.947818e-14
35	0xab185658	-5.4121074e-13
36	0xaabe0ccc	-3.375966e-13
37	0x2b13e4c8	5.254239e-13
38	0x2ae2ed7e	4.0310458e-13
39	0xaba13c82	-1.1456532e-12
40	0x2b24999a	5.847767e-13
41	0xaa3bd41a	-1.6682524e-13
42	0xa9a731d8	-7.424936e-14
43	0x2a85fc78	2.380073e-13
44	0x2b1c9e22	5.5641787e-13
45	0x2a456eaa	1.7535509e-13
46	0x3af7a41c	0.0018893513
47	0xaabc9c38	-3.3503907e-13
48	0x2981f36c	5.770978e-14
49	0x2ac3a974	3.475654e-13
50	0x2bcdc8bc	1.4621841e-12
51	0x2b20377e	5.692043e-13
52	0x2b9e40cd	1.1244561e-12
53	0x2a107b5c	1.2832568e-13
54	0xab515f20	-7.438373e-13
55	0xaa1f1a8c	-1.4131247e-13
56	0xa9efb1b8	-1.06445614e-13
57	0xab1f6208	-5.6624193e-13
58	0xab3de14a	-6.745894e-13
59	0x28e91ac0	2.5879797e-14
60	0xaa6753fb	-2.0546058e-13
61	0x2a243e1e	1.4587677e-13
62	0x2a1a37a0	1.3697246e-13
63	0xb694bb85	-4.432574e-06
64	0xab83f6ce	-9.376612e-13
65	0xaa46a908	-1.7644577e-13
66	0xab1439b6	-5.266025e-13
67	0xaa085596	-1.210892e-13
68	0x2b227a10	5.772336e-13
69	0x2a4c5748	1.8149122e-13
70	0xab689941	-8.263564e-13
71	0xaa100a54	-1.2793353e-13
72	0x2aa60368	2.9489887e-13
73	0x2a733d65	2.1604036e-13
74	0x3ad76efc	0.0016436274
75	0x2a1d53d6	1.3973488e-13
76	0x2b657de2	8.153184e-13
77	0x29728de4	5.3857865e-14
78	0xaa0879ff	-1.2121552e-13
79	0x2a70dfec	2.139397e-13
80	0x2abf4ad1	3.398033e-13
81	0x35166e12	5.603953e-07
82	0x2a1e94e6	1.4084879e-13
83	0xaa16d7f8	-1.3397606e-13
84	0x2ad6b7cc	3.814157e-13
85	0xa95b8b60	-4.8748657e-14
86	0xaa92602c	-2.6001542e-13
87	0x298c7658	6.237778e-14
88	0xabba0aab	-1.3219056e-12
89	0x2a455b02	1.752869e-13
90	0xa9dcd4c0	-9.806869e-14
91	0x2a3f2850	1.6978194e-13
92	0xb5bbbce0	-1.3987556e-06
93	0xaa8b7939	-2.4775475e-13
94	0x2bc293ed	1.3825587e-12
95	0x29b5c240	8.071712e-14
96	0x2b5e1a86	7.890705e-13
97	0x2c8d1d76	4.010732e-12
98	0xaac1ff06	-3.4460645e-13
99	0x2a9230e0	2.5968724e-13
100	0xab9d9bbc	-1.1198746e-12
101	0xab0d47a2	-5.0192673e-13
102	0x29293ce6	3.757836e-14
103	0x2b00896d	4.566545e-13
104	0xaa8edcc0	-2.5377443e-13
105	0x2b387c5f	6.554253e-13
106	0x29a281e7	7.21678e-14
107	0xaba38587	-1.1618908e-12
108	0xab5187af	-7.4440015e-13
109	0x2a85b305	2.3749766e-13
110	0xab5d42ee	-7.8607856e-13
111	0x29d51994	9.463537e-14
112	0x2a4b6350	1.8064478e-13
113	0x2ab5fb32	3.232636e-13
114	0x28eaa5c0	2.6051101e-14
115	0x29e43652	1.0134657e-13
116	0x2b450414	6.999412e-13
117	0xabba94c4	-1.3257386e-12
118	0x2b04f15c	4.7230774e-13
119	0xab186ed0	-5.415503e-13
120	0x2b01952d	4.603703e-13
121	0xab899e9a	-9.778456e-13
122	0xaa8ceb55	-2.503229e-13
123	0x2b7d2d3c	8.994643e-13
124	0x2bbe018c	1.3500741e-12
125	0xab6be4d6	-8.3806345e-13
126	0xbb8694b8	-0.004107084
127	0x2abac464	3.317651e-13
128	0x2bcd95d5	1.4607713e-12
129	0x2ae6abec	4.0975502e-13
130	0x2b3a8184	6.6260213e-13
131	0xab9de323	-1.1218564e-12
132	0x271c3a00	2.168079e-15
133	0x2b20a768	5.707574e-13
134	0x2a8d68cc	2.511935e-13
135	0x2a46a0ac	1.7641677e-13
136	0xab966137	-1.0685124e-12
137	0x29fd8454	1.1258412e-13
138	0x2b0aaa13	4.9263474e-13
139	0xab4de625	-7.315002e-13
140	0x29b80d6c	8.17357e-14
141	0xaaa63fee	-2.9531884e-13
142	0x2b89050f	9.73584e-13
143	0xb4c4cf20	-3.6658548e-07
144	0xab8febd6	-1.0226219e-12
145	0xab897e28	-9.769451e-13
146	0xabc53cfd	-1.401462e-12
147	0xaa951382	-2.6481253e-13
148	0xab94a6c1	-1.0562316e-12
149	0xaa1915c8	-1.3596687e-13
150	0xab0be4a4	-4.9700023e-13
151	0xaac72a46	-3.5378834e-13
152	0x2b9894a7	1.0841509e-12
153	0x2b5a7094	7.760539e-13
154	0xab7a8970	-8.9008575e-13
155	0x2b5b7b64	7.797567e-13
156	0xabd5ef29	-1.5200941e-12
157	0xaae63194	-4.089061e-13
158	0xab075fce	-4.809459e-13
159	0xaa0ea0f6	-1.2667978e-13
160	0xaa1472c3	-1.3184857e-13
161	0x2ab80a5f	3.2692162e-13
162	0xab81f7b3	-9.234752e-13
163	0xa91b4f5c	-3.4485747e-14
164	0xab02c0b9	-4.6452734e-13
165	0xaaf5e712	-4.368108e-13
166	0x2b11432a	5.1607557e-13
167	0xab51769c	-7.441632e-13
168	0xab846f84	-9.410116e-13
169	0x2b05fd00	4.76022e-13
170	0x3a872a19	0.0010312229
171	0xba85c9d0	-0.001020724
172	0xaafe5c77	-4.5183624e-13
173	0xaa853a75	-2.366611e-13
174	0x2b874d8b	9.613849e-13
175	0xa6a04800	-1.1121746e-15
176	0x292fbbc0	3.9020653e-14
177	0xaa9adc20	-2.7508638e-13
178	0x2a587a18	1.9227014e-13
179	0x2a380beb	1.6346618e-13
180	0xab15a9b7	-5.317096e-13
181	0x2b1c4c24	5.5528e-13
182	0x2b42d5ca	6.921934e-13
183	0x2a65ddb0	2.0416199e-13
184	0xa9b9d318	-8.252269e-14
185	0xab548eaa	-7.5515516e-13
186	0xaba0602f	-1.139538e-12
187	0x2b8073a9	9.127049e-13
188	0x2b03128c	4.656629e-13
189	0x298fd409	6.387258e-14
190	0xab8a075c	-9.807532e-13
191	0xaa96508a	-2.6701238e-13
192	0xa9865088	-5.9647654e-14
193	0x2aa76fbd	2.9742693e-13
194	0x2a78406e	2.2049178e-13
195	0x2b702e4c	8.532938e-13
196	0x298d3ba6	6.272005e-14
197	0x2a0fca1c	1.2771072e-13
198	0x2aa8fb9e	3.001739e-13
199	0x2b9b77ae	1.104663e-12
200	0xab841fa5	-9.387947e-13
201	0xaba99eba	-1.2052228e-12
202	0x2a0f0e6c	1.2705955e-13
203	0x2baee5fa	1.2427275e-12
204	0x2ad6879a	3.810813e-13
205	0x2aa10259	2.8600974e-13
206	0x28202100	8.88894e-15
207	0x2abbc614	3.3355317e-13
208	0xab46ebcf	-7.067098e-13
209	0x2b90d4c4	1.029087e-12
210	0x2a957618	2.654966e-13
211	0x2aa656df	2.9547802e-13
212	0x29dfb3ba	9.934367e-14
213	0x36830a04	3.90527e-06
214	0x2b2bc319	6.1022156e-13
215	0xaa5b5fc6	-1.9484335e-13
216	0x2adde971	3.941947e-13
217	0xaa714af0	-2.1431099e-13
218	0xab8fa38f	-1.0206158e-12
219	0xaa99b454	-2.7303387e-13
220	0xab38cf0e	-6.565728e-13
221	0x2b90b6ef	1.028259e-12
222	0x2b806bfc	9.124919e-13
223	0xabcb0cbf	-1.4427555e-12
224	0xab83be70	-9.360967e-13
225	0x2a3f84a0	1.7010221e-13
226	0xaaea6cb0	-4.1642167e-13
227	0xab531620	-7.4992963e-13
228	0x2ade2b70	3.9465263e-13
229	0x2b52de50	7.491551e-13
230	0xaa277725	-1.4873916e-13
231	0xb6f9d664	-7.4457366e-06
232	0x2ab7b3ad	3.2632005e-13
233	0x2b022e34	4.62494e-13
234	0x2addc01e	3.9390794e-13
235	0xab38c80c	-6.564755e-13
236	0x2b744df0	8.6794374e-13
237	0x2b534ecc	7.507161e-13
238	0xab0ab52e	-4.9278886e-13
239	0xa96d40f0	-5.2680896e-14
240	0xa7b42b80	-5.00072e-15
241	0xabc57917	-1.4031301e-12
242	0x2a193843	1.360865e-13
243	0x2ab05fba	3.1330304e-13
244	0xabb7889e	-1.3040851e-12
245	0x2988bc64	6.072294e-14
246	0x2b304664	6.262545e-13
247	0xaa1d1e28	-1.3954864e-13
248	0x28fa1860	2.7766147e-14
249	0x2b979619	1.0770856e-12
250	0xab1fc246	-5.6757756e-13
251	0xaa9adef4	-2.75106e-13
252	0xaa7335c8	-2.1601395e-13
253	0xaa05e848	-1.1893362e-13
254	0x2aa6476a	2.9537077e-13
255	0xb80c86fb	-3.350431e-05

act_conv1.bias f4 [4]
0	0x2b0e8c18	5.0642953e-13
1	0xa92bc7f8	-3.8143073e-14
2	0xab4b1ca1	-7.215982e-13
3	0xaae2f722	-4.0317147e-13

act_fc1.weight f4 [64, 256]
0	0x2ae85012	4.1267039e-13
1	0x2ace72d9	3.6672642e-13
2	0x2967460c	5.135306e-14
3	0xab85a7c6	-9.496785e-13
4	0x2984a6b0	5.890893e-14
5	0x2b84fa1c	9.448583e-13
6	0xab59cdbd	-7.7379406e-13
7	0x2a14a96c	1.320382e-13
8	0xab1ddb1c	-5.608168e-13
9	0x2b5dbc14	7.8775983e-13
10	0x28940690	1.6434147e-14
11	0xa9d1ae60	-9.311714e-14
12	0xab2ccade	-6.138821e-13
13	0x2a35b471	1.6138633e-13
14	0x2b839cc1	9.351618e-13
15	0x2997c984	6.7407045e-14
16	0xaab9a686	-3.297815e-13
17	0xaa09c84a	-1.2237534e-13
18	0x2649c800	7.0006934e-16
19	0x2abf53d0	3.3986572e-13
20	0x2a3456f0	1.6017374e-13
21	0x360af872	2.0708217e-06
22	0xaa825209	-2.3149562e-13
23	0x29d66080	9.520249e-14
24	0xab7b0b38	-8.918868e-13
25	0x2b32fbd2	6.3587774e-13
26	0x2a476537	1.7709867e-13
27	0xaa9bc7fe	-2.7672303e-13
28	0x2a202e5c	1.4226939e-13
29	0x29937a28	6.549302e-14
30	0xa92deaa4	-3.8617235e-14
31	0xab88bc5c	-9.715661e-13
32	0x2b438b56	6.9471284e-13
33	0xaa27b3c8	-1.4894954e-13
34	0x2aa2491a	2.8827705e-13
35	0xab622f1e	-8.035672e-13
36	0xaaaa40b6	-3.0242969e-13
37	0x2a2c6dfc	1.5314827e-13
38	0xaac7c2bc	-3.5484625e-13
39	0xab788dbe	-8.8304006e-13
40	0xaaa123b4	-2.862412e-13
41	0x2b48ee80	7.138526e-13
42	0x2b2e2ee9	6.188232e-13
43	0x2b81648a	9.193906e-13
44	0xaa411d06	-1.7151913e-13
45	0x2972575c	5.3810567e-14
46	0x2a7378d8	2.1624662e-13
47	0xa902f4e0	-2.9078194e-14
48	0x29ff3746	1.1333863e-13
49	0xab2699bd	-5.91884e-13
50	0xaa6df1cf	-2.1133723e-13
51	0x2ad378ea	3.756503e-13
52	0xaab50436	-3.215498e-13
53	0xaa8b2942	-2.4719988e-13
54	0x29ac9050	7.6633686e-14
55	0xa914e798	-3.3063477e-14
56	0xa9a6ba7c	-7.404231e-14
57	0x29c6b754	8.824769e-14
58	0xaa823266	-2.312761e-13
59	0x2a740a30	2.1675088e-13
60	0x29c24f5a	8.629096e-14
61	0xa8d3a530	-2.3497344e-14
62	0x3a6fccca	0.00091476424
63	0xaa2d07fd	-1.5368258e-13
64	0xab3c9c4c	-6.700792e-13
65	0xaa45642e	-1.7531872e-13
66	0xaa9d3583	-2.7925934e-13
67	0xab27ce50	-5.9616635e-13
68	0xaa2d3a46	-1.5385704e-13
69	0xab80b477	-9.145036e-13
70	0xaaa93c14	-3.0062118e-13
71	0xb8f5bf8d	-0.000117181895
72	0x29da29e6	9.688413e-14
73	0xab8929a7	-9.745996e-13
74	0xb96c47e6	-0.00022533498
75	0xaa04e737	-1.1804174e-13
76	0x2a656002	2.0372595e-13
77	0xaa6d5d69	-2.1082237e-13
78	0x2b3ed53b	6.7797477e-13
79	0x2b0eeefb	5.0780186e-13
80	0xab8e8357	-1.0126161e-12
81	0x29c00d86	8.528859e-14
82	0xa9825560	-5.78797e-14
83	0xaa170b48	-1.3415408e-13
84	0xab76fd96	-8.774868e-13
85	0x2af4dd93	4.3496855e-13
86	0xa90f1366	-3.1769204e-14
87	0xaa63ec6e	-2.0243678e-13
88	0x2b62d40f	8.058562e-13
89	0xb9335644	-0.00017102907
90	0x2b064736	4.770519e-13
91	0xa9d3de16	-9.408808e-14
92	0x2b75e5d6	8.7360447e-13
93	0xaa6e5d98	-2.1171118e-13
94	0xab0e67f6	-5.059281e-13
95	0xaaee8017	-4.2366173e-13
96	0xaaa5f683	-2.948094e-13
97	0x2b5a0068	7.744972e-13
98	0x2b734d2a	8.643803e-13
99	0xaa6eda6f	-2.1214431e-13
100	0xab77b06e	-8.7996873e-13
101	0xba67acf8	-0.0008837725
102	0xaa543600	-1.8848118e-13
103	0xaa810b39	-2.292279e-13
104	0x2a85c12e	2.375959e-13
105	0x3585c06b	9.965273e-07
106	0x28b63eb8	2.0233259e-14
107	0xb5ab7e12	-1.2777184e-06
108	0xa8bde047	-2.108048e-14
109	0x2b056b24	4.739978e-13
110	0xa9ba95f0	-8.286069e-14
111	0x2aa80326	2.984498e-13
112	0x2a11c81c	1.2948014e-13
113	0xaa149a7d	-1.319864e-13
114	0xa8f6e3b0	-2.741023e-14
115	0xb613c566	-2.2019608e-06
116	0xab3c8a28	-6.698275e-13
117	0x2b186fb9	5.4156294e-13
118	0xa9da5a6e	-9.696832e-14
119	0x2b3ea086	6.772433e-13
120	0x2af48bb3	4.3440043e-13
121	0x2a1baf81	1.3827656e-13
122	0x2a22a050	1.444411e-13
123	0x2aaeeecb	3.1074305e-13
124	0xab5727a6	-7.643837e-13
125	0x2b448809	6.9821975e-13
126	0x2a13e0e9	1.3134254e-13
127	0xaa6f450b	-2.1251418e-13
128	0xaa84a05c	-2.3559182e-13
129	0x2a86c206	2.3937812e-13
130	0xb793011a	-1.7524279e-05
131	0x2b61f445	8.027505e-13
132	0xaa967bce	-2.673126e-13
133	0xab5d884c	-7.870412e-13
134	0xa6981800	-1.0553624e-15
135	0x33954f32	6.952759e-08
136	0xaaab31bb	-3.041021e-13
137	0xab8471d5	-9.410759e-13
138	0xab56c293	-7.62981e-13
139	0xb7100ea0	-8.586474e-06
140	0x2b546b42	7.546638e-13
141	0xa981a8f8	-5.758062e-14
142	0xab393691	-6.580093e-13
143	0xaa6ee0ef	-2.1216686e-13
144	0xab23d108	-5.819932e-13
145	0x2a7842f8	2.2050059e-13
146	0x2aa5b463	2.9435056e-13
147	0x2a8beba3	2.4854866e-13
148	0x2abea4ae	3.386505e-13
149	0x2b7d4ec1	8.999295e-13
150	0x29287300	3.740324e-14
151	0xab864567	-9.540536e-13
152	0x391bb7aa	0.00014850372
153	0xaa80cf84	-2.288136e-13
154	0xab6e697d	-8.470098e-13
155	0x2a2cb602	1.5339815e-13
156	0xaae8dad6	-4.1363327e-13
157	0xaa7e1679	-2.2567529e-13
158	0x2b13663f	5.2366786e-13
159	0xab206162	-5.6978565e-13
160	0xaa9e9f6a	-2.8177054e-13
161	0x29a72bb0	7.4238684e-14
162	0xab8d8988	-1.0056825e-12
163	0xa90a3ff0	-3.0697612e-14
164	0xa56a7000	-2.0334212e-16
165	0xab178db9	-5.3842656e-13
166	0x2b1e81f7	5.631324e-13
167	0xab37d0e6	-6.5304565e-13
168	0x2a0bc522	1.2414074e-13
169	0xaa9327d6	-2.6140087e-13
170	0x2a959af0	2.6575226e-13
171	0x2b01a0a6	4.605295e-13
172	0xa8287360	-9.350891e-15
173	0x28bf7638	2.1256529e-14
174	0x2abcb608	3.3521818e-13
175	0xb8596b9a	-5.1837043e-05
176	0xaac66e34	-3.5248334e-13
177	0xab07d04f	-4.825072e-13
178	0xab747a4c	-8.6855935e-13
179	0xaacf74b8	-3.6851576e-13
180	0xaa24c0b8	-1.4632989e-13
181	0x2a502504	1.8486954e-13
182	0xab91219e	-1.03122e-12
183	0xb77651ad	-1.4681759e-05
184	0xab309598	-6.2735364e-13
185	0x2ae916b0	4.1404857e-13
186	0x29ecbe88	1.0513557e-13
187	0xaab2c72e	-3.175736e-13
188	0xa9a0c3a8	-7.139368e-14
189	0x35b74c4e	1.365677e-06
190	0xab359ede	-6.452459e-13
191	0xaaa964b8	-3.0090318e-13
192	0xa8f70bf0	-2.7427686e-14
193	0x2b443672	6.9708746e-13
194	0xaa018c4a	-1.1506174e-13
195	0x37e767ac	2.7585622e-05
196	0x3812ea2c	3.5027202e-05
197	0xaaebf1c6	-4.191215e-13
198	0x2a1ffd9e	1.4210028e-13
199	0xa9808ace	-5.7084207e-14
200	0x2a44f1f6	1.7492244e-13
201	0xaaa4836d	-2.9223447e-13
202	0xaa8a11cb	-2.452607e-13
203	0xaa236354	-1.451177e-13
204	0x2a4f1667	1.8393066e-13
205	0xab23ee72	-5.824014e-13
206	0x33c1f4a8	9.0317656e-08
207	0x29869890	5.977261e-14
208	0x2a5c0e7a	1.9544948e-13
209	0xa92247b8	-3.6033432e-14
210	0xaa24dac0	-1.464202e-13
211	0x3895423c	7.117211e-05
212	0xab0085fe	-4.5660687e-13
213	0x2a9f2f88	2.8277055e-13
214	0xab19f231	-5.469263e-13
215	0xa9cda93c	-9.133186e-14
216	0x2b5d2eac	7.857974e-13
217	0x2abc3ea2	3.343897e-13
218	0x2ad18dbd	3.7224209e-13
219	0xa8326860	-9.903618e-15
220	0x2a59b2bc	1.9335483e-13
221	0x2b5dcebc	7.8801874e-13
222	0x2b20f8e0	5.71888e-13
223	0xaad46246	-3.7726956e-13
224	0xaa8072c4	-2.2817002e-13
225	0xaa9448a6	-2.634049e-13
226	0x2b27627b	5.946699e-13
227	0x2b3f8042	6.8034825e-13
228	0xab05e2b4	-4.7565706e-13
229	0x2ae59662	4.078292e-13
230	0xab36fde5	-6.501174e-13
231	0x2a05c5e1	1.1881426e-13
232	0xab80082a	-9.097213e-13
233	0xa98ad4e0	-6.165359e-14
234	0xa9dfb3ca	-9.934378e-14
235	0xab81d7c9	-9.225894e-13
236	0x2ad276f9	3.7386047e-13
237	0xaa0dfe76	-1.26116e-13
238	0xaa4c3f7a	-1.8140863e-13
239	0xaa6e80e6	-2.1183367e-13
240	0xaaafb877	-3.1214243e-13
241	0x2a9fb014	2.8366252e-13
242	0xa9e75840	-1.027377e-13
243	0x2aa40212	2.913369e-13
244	0x2ab6b30d	3.2453936e-13
245	0xa98e1328	-6.30939e-14
246	0x2a71d33a	2.1478384e-13
247	0xab02c78a	-4.6462194e-13
248	0xab31dce9	-6.3189607e-13
249	0xa87109e0	-1.3380329e-14
250	0x2a763368	2.1867024e-13
251	0x2af42b3c	4.3373107e-13
252	0x2a04f030	1.1807287e-13
253	0x2a8a04b4	2.4516988e-13
254	0x2b3a50a7	6.61924e-13
255	0xaaf55653	-4.3580642e-13

act_fc1.bias f4 [64]
0	0xb4ae17d0	-3.2427351e-07
1	0x2b42d1e6	6.921394e-13
2	0xab2fcb3c	-6.2454534e-13
3	0x2b141640	5.261104e-13
4	0xaa7c2a08	-2.2396679e-13
5	0x2b4646c9	7.0441965e-13
6	0x2a079769	1.204294e-13
7	0xb506cf8b	-5.0220905e-07
8	0x2b5d1254	7.854041e-13
9	0xaa03f9c6	-1.1721795e-13
10	0xab4c24c6	-7.252639e-13
11	0x283d3b20	1.0504428e-14
12	0x2a4523ab	1.750949e-13
13	0xaa973775	-2.686147e-13
14	0x2a8092c3	2.2839204e-13
15	0x288e4560	1.5795254e-14
16	0x2b31f8cd	6.322831e-13
17	0xb98d4296	-0.00026943226
18	0xab1f9173	-5.669e-13
19	0x2a96f410	2.6814705e-13
20	0xab43ff72	-6.963242e-13
21	0xab1d967a	-5.5986433e-13
22	0xaae59728	-4.0783457e-13
23	0x2aa45586	2.9191596e-13
24	0x29732a48	5.3993512e-14
25	0xaa866118	-2.3870554e-13
26	0x2a2dde50	1.5442617e-13
27	0xaaa32ffb	-2.898791e-13
28	0x29b9dd12	8.254e-14
29	0xab2c992e	-6.1319255e-13
30	0xaa0fb000	-1.2762014e-13
31	0xaa98f5e1	-2.7171237e-13
32	0xab0164e3	-4.5970015e-13
33	0x290bd678	3.1050222e-14
34	0xab7e076a	-9.0249217e-13
35	0x2ace1113	3.6604799e-13
36	0xa9fcc724	-1.12255935e-13
37	0xab0574f8	-4.741342e-13
38	0x2af89ab5	4.4161e-13
39	0x2b464382	7.0437417e-13
40	0x29a35f78	7.255215e-14
41	0xab48c466	-7.132683e-13
42	0x2b08cabc	4.8598256e-13
43	0xab332f1b	-6.3658947e-13
44	0xaafad848	-4.4558996e-13
45	0xaa804844	-2.2787512e-13
46	0xb4876842	-2.5221567e-07
47	0x2b871410	9.597895e-13
48	0x2ab1a5c4	3.155654e-13
49	0xab03afa5	-4.6784305e-13
50	0xaa44a480	-1.746537e-13
51	0x2abde3ea	3.3731291e-13
52	0x2888a200	1.516929e-14
53	0xaabc6e5a	-3.347208e-13
54	0xaa2d7840	-1.5407207e-13
55	0xab5a9c2e	-7.76659e-13
56	0xab6dcb47	-8.448142e-13
57	0xaad68573	-3.8106635e-13
58	0x2a90d6d6	2.572861e-13
59	0x2a1fd4f6	1.4195923e-13
60	0xa9bd5b4c	-8.4091235e-14
61	0x2a9fea6d	2.840674e-13
62	0xab111eae	-5.1556925e-13
63	0x2aee4645	4.2326052e-13
