current_policy-66.model (torch_old, 419465 bytes, 15 tensors)

conv1.weight f4 [32, 4, 3, 3]
0	0x3e279c51	0.16368224
1	0x3c566c4a	0.013087342
2	0xbc260322	-0.010132583
3	0x3d20f489	0.039295707
4	0x3dc421ca	0.09576757
5	0xbe5c82e2	-0.21534303
6	0x3e53cdcc	0.20683974
7	0x3e3b97f7	0.18319689
8	0x3e1ff241	0.15619756
9	0xbcc670e7	-0.024223758
10	0xbc8cb3f3	-0.01717565
11	0x3da719a6	0.08159189
12	0xbdc4eb08	-0.09615141
13	0x3de842ec	0.11340889
14	0xbe25b80a	-0.16183487
15	0x3df58d29	0.11989815
16	0x3d8accbf	0.067773335
17	0x3e465c18	0.19371068
18	0xbe3c45bd	-0.18385978
19	0x3b7db039	0.0038709773
20	0xbcba1cab	-0.022718748
21	0xbd973cf0	-0.0738467
22	0xbd69f5c7	-0.057119157
23	0xbc31b7b9	-0.010847026
24	0x3d53c98c	0.051705882
25	0x3e202ac5	0.15641315
26	0xbdab14c8	-0.08353573
27	0xbe0d366a	-0.13790289
28	0xbe53d602	-0.20687106
29	0xbddbaf4e	-0.10726796
30	0xbd65a55b	-0.0560659
31	0xbe16aa7f	-0.14713477
32	0xbd60a4d5	-0.054844696
33	0xbe032b15	-0.12809403
34	0xbe50e4ca	-0.20399776
35	0x3cd344b2	0.025789592
36	0x3e681aa6	0.22666416
37	0x3eb2b11c	0.3490075
38	0xbdcd14cf	-0.100137345
39	0xbe119108	-0.14215481
40	0x3ec53326	0.38515586
41	0xbe56d5a8	-0.20979941
42	0x3c58680b	0.0132083995
43	0xbd8b124a	-0.06790598
44	0x3d46c525	0.048527855
45	0xbe176fd1	-0.14788748
46	0xbe7a11b5	-0.24420817
47	0x3b5a7418	0.0033333357
48	0x3dcb02b7	0.09912627
49	0xbe00743b	-0.12544338
50	0x3dbd8aeb	0.09255012
51	0x3d6a87cd	0.057258416
52	0xbf037c0e	-0.5136117
53	0xbe22acb2	-0.1588619
54	0x3d6a719c	0.057237253
55	0xbe150c6f	-0.14555524
56	0xbd642f74	-0.055709317
57	0xbe602df9	-0.21892537
58	0xbe38bc60	-0.1804061
59	0xbcac2570	-0.021013945
60	0xbdb81457	-0.089882545
61	0xbe82725b	-0.2547787
62	0xbc51730e	-0.012783779
63	0xbd119fc5	-0.03555276
64	0x3d67d03e	0.05659508
65	0xbd2e7f45	-0.042601842
66	0xbce55e02	-0.027998928
67	0x3dc2a5de	0.09504293
68	0x3c9cf793	0.019161021
69	0xbcf93d4d	-0.030424738
70	0xb9b0808f	-0.0003366512
71	0xbe24a8e1	-0.16080047
72	0xbefcba78	-0.49361014
73	0x3d2d2a68	0.04227677
74	0xbe6a3a45	-0.2287379
75	0xbc8a6304	-0.016892917
76	0x3e1b9ead	0.15197249
77	0xbd739fb3	-0.059478473
78	0x3d3e5a7e	0.04647302
79	0x3f146c20	0.57977486
80	0xbeee558d	-0.46549645
81	0xbd8c59f1	-0.068530925
82	0xbbc97815	-0.006148348
83	0xbd133585	-0.035939712
84	0xbea7f537	-0.32804272
85	0xbe4bd59b	-0.19905703
86	0x3e9985d5	0.29984918
87	0x3cb07535	0.021540264
88	0xbd3a1ff8	-0.045440644
89	0x3ce6c2bd	0.02816903
90	0x3c0545d4	0.008134324
91	0x3d8e4bc8	0.06948048
92	0xbc2e7195	-0.010647197
93	0xbdbb0790	-0.09132302
94	0x3e33cf80	0.17559624
95	0xbd76412d	-0.06012075
96	0xbcd502bf	-0.026002286
97	0xbc8182dd	-0.01580947
98	0x3d9045f1	0.0704459
99	0x3e11cc1f	0.14238022
100	0xbcfe4fea	-0.031043965
101	0xbe07c8b4	-0.13260156
102	0x3daca7e1	0.08430458
103	0xbdb912ca	-0.09036787
104	0xbd96b37d	-0.073584534
105	0x3db1064a	0.08643778
106	0xbe37c374	-0.17945653
107	0x3d7912bb	0.06080888
108	0x3e00e5d9	0.1258768
109	0x3d8b0c09	0.06789405
110	0xbe1f61e8	-0.15564692
111	0xbedca954	-0.43097937
112	0xbe082973	-0.13297062
113	0xbed99c1c	-0.42501915
114	0xbc0f2577	-0.00873696
115	0x3d38763e	0.04503464
116	0xbf0cd2a6	-0.55008924
117	0x3df75a0b	0.12077721
118	0x3e841e2f	0.25804278
119	0x3e7b6947	0.24551879
120	0xbec733fd	-0.3890685
121	0x3ddbf277	0.10739606
122	0x3e2d5d0e	0.16930029
123	0x3da576ac	0.080792755
124	0x3e65b9b0	0.22434115
125	0x3ddfd9c1	0.10930205
126	0xbe5321a8	-0.20618308
127	0xbc99296b	-0.018696507
128	0x3cf37a43	0.029721385
129	0x3e6d99f0	0.23203254
130	0x3d9f32e8	0.077733815
131	0x3ca721f6	0.020401936
132	0x3d4ff126	0.050767086
133	0xbe891f77	-0.26781818
134	0xbcd7ce60	-0.026343524
135	0xbe495ef1	-0.19665124
136	0xbd329854	-0.043602303
137	0xbe167d9c	-0.14696354
138	0xbda1b8fa	-0.078966096
139	0x3e12f7db	0.14352362
140	0x3dd44833	0.103653334
141	0x3df43568	0.11924249
142	0x3e0df49f	0.13862847
143	0xbdefe25b	-0.11713096
144	0xbd6e8434	-0.058231547
145	0x3d4289eb	0.04749481
146	0xbea838a6	-0.3285572
147	0xbdae6e82	-0.085171714
148	0xbd289ac5	-0.041163225
149	0x3e2e2a6e	0.17008373
150	0xbefd4c7d	-0.49472418
151	0xbea420c0	-0.32056236
152	0x3f03c4df	0.51472276
153	0xbe384e7a	-0.17998686
154	0x3c90543c	0.017618291
155	0x3d06bffa	0.032897927
156	0x3c98d7de	0.018657621
157	0xbcea31e3	-0.028588241
158	0xbec49834	-0.38397372
159	0x3e4ff256	0.20307288
160	0x3dac1607	0.08402639
161	0xbea869b8	-0.32893157
162	0x3e1f9dd3	0.15587549
163	0x3dd2bf0f	0.10290348
164	0x3cf50ffa	0.029914845
165	0xbe10b3f5	-0.14131148
166	0x3d3a09ae	0.045419388
167	0xbe397a35	-0.18113025
168	0x3c378620	0.0112014115
169	0xbbe468bb	-0.0069704927
170	0xbe0c6bf4	-0.13713056
171	0x3e02ccd8	0.12773454
172	0xbe1fbdae	-0.15599701
173	0xbdb37dde	-0.08764242
174	0x3e2529bd	0.16129203
175	0xbd02bebb	-0.031920176
176	0x3e2b40aa	0.16723886
177	0xbe0f0fd2	-0.13970879
178	0x3d9381e4	0.07202509
179	0xbe438b90	-0.19096208
180	0x3cee1c1b	0.029066136
181	0xbe192c12	-0.14958218
182	0xbcaa5cf6	-0.02079628
183	0xbe9154ad	-0.28384915
184	0x3e8e8f83	0.27843866
185	0x3e4eb0dd	0.20184655
186	0xbd780681	-0.060553078
187	0xbe7b8e61	-0.24566032
188	0xbec24615	-0.37944093
189	0x3e767787	0.24069034
190	0xbe283973	-0.16428165
191	0xbce08b79	-0.027410256
192	0xbe847bb4	-0.25875628
193	0x3e83d209	0.25746182
194	0x3e1f1bf3	0.15538006
195	0xbe8abc79	-0.27096918
196	0xbe77113b	-0.24127667
197	0xbc660f31	-0.014041708
198	0xbde1e351	-0.11029685
199	0x3dd385fd	0.103282906
200	0xbc82bb41	-0.01595843
201	0x3e00d992	0.12582996
202	0xbe272a5e	-0.16324756
203	0x3bb2faa2	0.0054620067
204	0x3b164b66	0.0022933125
205	0x3e7ece65	0.24883421
206	0xbe22608f	-0.15857147
207	0x3daebd61	0.08532215
208	0xbd26323b	-0.040575247
209	0x3d6602dd	0.056155074
210	0xbdefe215	-0.117130436
211	0x3d284b01	0.041087154
212	0xbe06e442	-0.13173011
213	0x3df9a431	0.1218952
214	0xbd8546d1	-0.06507648
215	0xbd4f9adb	-0.05068479
216	0x3e2f7390	0.17133927
217	0xbac6dc71	-0.0015171898
218	0xbe432c01	-0.19059755
219	0xbd6c6a65	-0.057718653
220	0xbe3366a6	-0.17519626
221	0x3d014354	0.03155835
222	0x3e808a2d	0.2510542
223	0x3e2fe2f7	0.17176424
224	0xbd3f7745	-0.046744604
225	0x3e2fde33	0.17174606
226	0xbe675898	-0.2259239
227	0x3eb0c06a	0.345218
228	0xbf00b17b	-0.50270814
229	0x3cbc5d4a	0.022993702
230	0xbe401a6d	-0.1876008
231	0x3dbee4a3	0.09320953
232	0xbedc6dd9	-0.43052557
233	0x3e9edae0	0.31026363
234	0x3cddcc3a	0.027074922
235	0xbc38b849	-0.011274406
236	0xbdb43b9d	-0.08800433
237	0xbe2cf43b	-0.16890042
238	0xbde81e67	-0.11333924
239	0x3db49179	0.08816809
240	0x3d9c4e76	0.07632153
241	0xbdd00b08	-0.10158354
242	0xbd079e27	-0.03310981
243	0xbe26af8f	-0.16277908
244	0xbe3f9a15	-0.18711121
245	0xbe64197d	-0.22275348
246	0xbe0e508d	-0.13897915
247	0xbe495cf3	-0.19664364
248	0xbe227334	-0.15864259
249	0xbe0c915c	-0.13727325
250	0xbd528d36	-0.0514042
251	0xbd86e49c	-0.065865725
252	0x3e8df18d	0.2772335
253	0xbeadc149	-0.33936527
254	0x3edfa57a	0.43680936
255	0x3e8c77a8	0.2743504

conv1.bias f4 [32]
0	0xbe4e78a0	-0.20163202
1	0xbbafd248	-0.0053656437
2	0xbcbe2a10	-0.023213416
3	0x3da5c697	0.08094519
4	0x3d948a44	0.072529346
5	0x3e11b83a	0.14230433
6	0xbd47febf	-0.04882693
7	0xbd55bc7c	-0.052181706
8	0xbd2a51a5	-0.04158177
9	0x3e36cf23	0.17852454
10	0x3d1ad962	0.03780497
11	0xbe5fc958	-0.2185415
12	0xbd76d1c9	-0.06025866
13	0xbe116572	-0.14198855
14	0x3cfb7e16	0.03069977
15	0xbe54f2c1	-0.20795728
16	0x3c54e524	0.0129940845
17	0x3b4b99e3	0.0031067065
18	0x3df36c6c	0.11885914
19	0xbd8c011f	-0.06836151
20	0xb99ed754	-0.0003029654
21	0xbe44d91c	-0.19223446
22	0x3d935c1b	0.07195302
23	0xbdf9a080	-0.12188816
24	0xbdc344a2	-0.09534575
25	0xbe694bc4	-0.22782809
26	0xbdca04f8	-0.09864229
27	0xbdaccbd5	-0.084373154
28	0x3cda4046	0.026641976
29	0xbe06ebb3	-0.1317585
30	0x3c72824e	0.014801575
31	0xbe2a92db	-0.16657583

conv2.weight f4 [64, 32, 3, 3]
0	0xbd131e3a	-0.0359175
1	0x3d298602	0.041387565
2	0x3db1bf8c	0.08679113
3	0xbe20ca32	-0.15702131
4	0xbe03613d	-0.12830062
5	0xbdceaf41	-0.10092021
6	0x3da53341	0.080664165
7	0x3d93fe02	0.072261825
8	0x3e83e8d7	0.2576358
9	0x3caad29a	0.020852376
10	0x3df5b6e5	0.11997775
11	0x3c75a725	0.014993464
12	0xbd289738	-0.04115984
13	0x3dc6c9d1	0.09706462
14	0xbbe04091	-0.0068436344
15	0xbd5aa9b8	-0.053384513
16	0x3c8430cc	0.01613655
17	0x3c994df4	0.018713929
18	0xbdba5a34	-0.09099236
19	0xbca402f1	-0.020020934
20	0xbe46e3fa	-0.19422904
21	0xbc7455c8	-0.01491303
22	0x3c8306ec	0.015994512
23	0xbc30e554	-0.010796864
24	0x3d973035	0.07382242
25	0x3bbe7ad1	0.0058129807
26	0x3db2dc7f	0.087334625
27	0xbe4c3de4	-0.19945484
28	0x3d8d3c5f	0.068962805
29	0xbdc3053f	-0.09522485
30	0xbd49606f	-0.049164232
31	0x3cd11668	0.02552338
32	0x3d4a55ac	0.04939811
33	0xbda38a21	-0.079853304
34	0xbd804ed7	-0.062650375
35	0xbd1c996a	-0.038232245
36	0x3bcd64cb	0.006268119
37	0xbda38458	-0.07984227
38	0x3d6c8d5e	0.057752006
39	0xbd964734	-0.073378
40	0xbcfdea45	-0.030995497
41	0x3d99770a	0.07493408
42	0x3d5bc715	0.053656656
43	0xbe7c9f26	-0.24670085
44	0xbd878d74	-0.06618777
45	0xbd4b45d0	-0.049627125
46	0xbcd5a8f3	-0.026081538
47	0xbdcc202f	-0.09967076
48	0xbe83408c	-0.25635183
49	0x3c4e649c	0.012597229
50	0xbddf4c9b	-0.10903283
51	0xbe236367	-0.15955888
52	0xbe2a186e	-0.16610882
53	0x3cd82f7f	0.026389835
54	0xbe12ddf6	-0.14342484
55	0x3cdbe25f	0.02684134
56	0x3d0896f7	0.033347096
57	0xbe64521e	-0.2229695
58	0xbe1a27b5	-0.1505421
59	0xbe617c68	-0.22020113
60	0xbe0bdf2b	-0.1365935
61	0x3db67adc	0.08910152
62	0x3e6e29f7	0.23258196
63	0x3c980fb5	0.018562177
64	0x3d0cdecf	0.034392174
65	0x3e1cf7ba	0.15328875
66	0xbce29a35	-0.027661422
67	0xbdcfcde2	-0.10146691
68	0xbd3a3c7f	-0.04546785
69	0xbd65f483	-0.056141388
70	0xbd3fc6c1	-0.046820406
71	0xbd407c90	-0.046993792
72	0xbd8d9d13	-0.06914725
73	0xbdc241dd	-0.09485219
74	0xbd760487	-0.06006291
75	0x3d708f58	0.058730453
76	0x3bcbc8bd	0.006218998
77	0x3c85f37c	0.016351454
78	0xbe28dd98	-0.16490781
79	0x3de98770	0.11402786
80	0x3dde7f74	0.108641535
81	0xbe82daf0	-0.2555766
82	0x3d2db82b	0.042411964
83	0xbd9175f3	-0.07102575
84	0xbe334210	-0.1750567
85	0x3d2e2a16	0.042520605
86	0xbd7e4e82	-0.06208659
87	0xbdc4db23	-0.096121095
88	0x3e29e355	0.16590627
89	0x3d13a673	0.03604741
90	0xbdb645a6	-0.08900003
91	0xbda3fe18	-0.08007449
92	0x3e04a51e	0.12953612
93	0xbb732a7a	-0.0037104175
94	0x3d2ba138	0.041901797
95	0x3baea522	0.005329744
96	0xbd1c7a1c	-0.03820239
97	0x3d024ad9	0.03180966
98	0x3db1fab6	0.086903974
99	0xbd5ca644	-0.0538695
100	0x3db81ace	0.089894876
101	0xbcf7368c	-0.030177377
102	0xbcf5d4b1	-0.030008646
103	0x3d39d4b4	0.045368865
104	0xbd67204d	-0.05642729
105	0x3c957f43	0.01824916
106	0x3e15ec26	0.14640865
107	0x3c1ff8f3	0.009763944
108	0x3a9016c6	0.0010993115
109	0x3da2a902	0.07942392
110	0x3d057dfc	0.03259085
111	0x3d699d17	0.05703458
112	0xbd5baa13	-0.053628992
113	0xbd9dadb5	-0.076991476
114	0xbc660ad5	-0.0140406685
115	0x3ca9597e	0.020672556
116	0x3d8e0667	0.06934815
117	0x3e04e810	0.1297915
118	0xbd68e77a	-0.05686138
119	0x3dbc1a4a	0.09184702
120	0x3dcd68e0	0.10029769
121	0xbd188210	-0.037233412
122	0x3e009bd7	0.12559448
123	0x3e90cc26	0.28280753
124	0xbdb928e6	-0.09041004
125	0x3e255f30	0.16149592
126	0xbcb80f03	-0.022468096
127	0xbe43f508	-0.19136441
128	0xbd2e082a	-0.042488255
129	0xbd6d2c4e	-0.05790358
130	0xbd98ff60	-0.07470584
131	0x3d48b962	0.04900492
132	0xbdb2d4e5	-0.08732013
133	0xbe07194e	-0.13193247
134	0xbdd4afe5	-0.10385112
135	0xbc540964	-0.012941692
136	0xbe231515	-0.15926011
137	0xbd27e382	-0.040988453
138	0x3cf335c5	0.029688725
139	0x3dda0648	0.10645729
140	0xbd312f88	-0.04325822
141	0x3dd6450a	0.10462387
142	0xbdea2dd0	-0.11434519
143	0xbe0e6349	-0.13905062
144	0x3dca22f5	0.09869949
145	0x3d0fb427	0.035083916
146	0x3df440a7	0.11926394
147	0xbe0faa7f	-0.14029883
148	0x3ca63235	0.020287612
149	0xbcd01ba9	-0.025403814
150	0x3c889a26	0.016675066
151	0x3e63a570	0.22231078
152	0x3de52f16	0.111906216
153	0xbd188c2b	-0.03724305
154	0xbe6e88c6	-0.23294362
155	0xbe35630f	-0.17713569
156	0x3c67aa06	0.014139658
157	0xbdb9c6d8	-0.090711296
158	0x3e00d71b	0.12582056
159	0xbd89a142	-0.067202106
160	0x3e248037	0.16064535
161	0xbde1bbc9	-0.11022145
162	0x3dce75d5	0.100810684
163	0x3dc81426	0.09769468
164	0x3c964bb6	0.018346649
165	0x3dcfe30b	0.10150727
166	0xbd0cb17b	-0.034348946
167	0x3d8caecf	0.068692796
168	0xbdf2e065	-0.11859206
169	0xbd06de82	-0.032927044
170	0xbd87fb00	-0.06639671
171	0xbda48f1b	-0.08035108
172	0x3e256e56	0.16155371
173	0xbe091d19	-0.13390006
174	0x3d00c969	0.03144208
175	0xbd0ce5d4	-0.03439887
176	0xbdef4fda	-0.11685152
177	0xbd74436e	-0.05963462
178	0xbe09cd97	-0.13457333
179	0x3d999b53	0.07500329
180	0xbe07c75b	-0.13259642
181	0x3dab7793	0.08372416
182	0xbd396b3f	-0.045268293
183	0xbdc5fad8	-0.09666985
184	0x3d02da74	0.031946614
185	0xbe8263c3	-0.25466737
186	0xbd9f86b3	-0.07789364
187	0xbd9ccfb1	-0.076568015
188	0x3d54ebd3	0.051982712
189	0xbc9613fb	-0.018320074
190	0x3c34dddf	0.011039226
191	0x3ca54cc1	0.0201782
192	0xbda2588c	-0.07927045
193	0x3bcf1f1d	0.0063208477
194	0x3de5a0d3	0.112123154
195	0x3cc32ba5	0.023824522
196	0x3d81e132	0.06341781
197	0x3dba1634	0.09086266
198	0xbd547f2e	-0.0518791
199	0xbdc904fc	-0.09815404
200	0xbe2a4939	-0.16629495
201	0x3d6a1661	0.05715025
202	0x3d9cabb6	0.07649939
203	0x3d8d4f48	0.06899887
204	0x3d651a59	0.05593333
205	0x3d9f5064	0.07779005
206	0x3d323657	0.043508854
207	0xbe1a03e3	-0.15040545
208	0xbe281e05	-0.16417702
209	0xbe130b85	-0.14359863
210	0xbd729d37	-0.059231963
211	0xbd27bbc2	-0.040950544
212	0xbdf36f7b	-0.118864976
213	0x3dc94003	0.098266624
214	0xbcd3c65e	-0.025851425
215	0x3d0fe702	0.035132416
216	0x3ce5a8cd	0.028034592
217	0x3e301640	0.17195988
218	0x3e1d6727	0.15371381
219	0xbc8f062c	-0.017458998
220	0xbdf3f433	-0.11911812
221	0xbc5de7d5	-0.013544043
222	0xbd174594	-0.03693159
223	0xbe3af2ff	-0.18256758
224	0x3b4c32c1	0.0031158181
225	0xbaa733c4	-0.0012756516
226	0x3e35cd6b	0.17754142
227	0xbe120823	-0.14260916
228	0xbdcbbca5	-0.099480905
229	0xbc42d596	-0.011891743
230	0xbb527611	-0.003211383
231	0x3db5e711	0.08881963
232	0x3dd6d393	0.10489573
233	0x3d279377	0.040912118
234	0xbe4e6ea8	-0.201594
235	0x3ddff5f4	0.10935584
236	0x3d9a075c	0.07520935
237	0xbd9bd482	-0.07608892
238	0xbd74bcf0	-0.059750497
239	0xbdd215c4	-0.10258058
240	0xbc78c813	-0.01518442
241	0x3c540734	0.0129411705
242	0xbe356442	-0.17714027
243	0xbe2bfb51	-0.16795088
244	0xbd4a6218	-0.049409956
245	0x3e323b8d	0.1740553
246	0xbd9a0e4c	-0.07522258
247	0x3d3e0419	0.046390627
248	0x3dd134ac	0.102151245
249	0x3c72af56	0.014812311
250	0x3c8dd39d	0.01731282
251	0x3e572a69	0.21012272
252	0x3da7202e	0.08160435
253	0xbe6b281e	-0.22964522
254	0x3d87f540	0.066385746
255	0xbe00b1dd	-0.1256785

conv2.bias f4 [64]
0	0xbd0bb93c	-0.0341122
1	0xbd3f6e31	-0.046735946
2	0xbd8dc02d	-0.0692142
3	0xbd14ee88	-0.036360294
4	0xbd36933e	-0.044574015
5	0x3cbf733f	0.023370383
6	0x3d4dcd50	0.05024463
7	0x3d6cae14	0.0577832
8	0xbc295e03	-0.010337356
9	0xbcaa09e6	-0.020756673
10	0xbac39f17	-0.0014924732
11	0xbcb60fb6	-0.022224288
12	0x3d2802d2	0.041018315
13	0x3cb52aed	0.022115195
14	0xbda6eb3f	-0.081503384
15	0x3c4671dc	0.012112107
16	0xbdc281f3	-0.09497442
17	0xbdce5eaa	-0.100766495
18	0xbdb96827	-0.090530686
19	0x3d16a342	0.03677679
20	0xbd3a16e4	-0.045431986
21	0xbdbe330e	-0.09287082
22	0xbd3873f2	-0.04503245
23	0xbbd1228e	-0.006382293
24	0xbdaf98c8	-0.085740626
25	0x3d0e3c12	0.034725256
26	0xbb78b99a	-0.0037952424
27	0x3b81ca3c	0.003960876
28	0x3ddc9c65	0.107720174
29	0xbdd7e034	-0.1054081
30	0xbac8dbf8	-0.0015324345
31	0xbbc55da4	-0.0060231257
32	0xbcba5146	-0.022743832
33	0xbdab3227	-0.08359175
34	0xbbf72150	-0.007541813
35	0xbd30fae5	-0.04320802
36	0xbd3574f7	-0.044301
37	0xbd8dde0d	-0.069271185
38	0x3cbccc23	0.023046559
39	0x3bf360c8	0.0074273087
40	0xbd04d3fe	-0.032428734
41	0xbc10582d	-0.008810085
42	0x3d3229ee	0.04349702
43	0xbbd41cf5	-0.0064731785
44	0xbd10ab94	-0.03531988
45	0x3d0074c6	0.031361364
46	0xbc924a4e	-0.017857697
47	0xbd30627a	-0.043062665
48	0xbd28094e	-0.0410245
49	0xbd921058	-0.071320236
50	0xbdb10b5e	-0.08644746
51	0xbd2d5776	-0.042319737
52	0xbc3564db	-0.011071409
53	0xba8e3b8a	-0.0010851484
54	0x3ddcafcc	0.10775718
55	0xbda73589	-0.08164508
56	0x3d8abcd1	0.06774295
57	0xbbb53f18	-0.005531203
58	0xbd39b6dc	-0.045340404
59	0x3c571b0d	0.013129008
60	0xbd66e788	-0.05637315
61	0xbcb10b97	-0.021611972
62	0xbcabc17e	-0.020966288
63	0x3cce634f	0.025193838

conv3.weight f4 [128, 64, 3, 3]
0	0xbc9a3fe0	-0.018829286
1	0xbd2f533d	-0.04280399
2	0x3b6f4c69	0.003651405
3	0x3d4a867c	0.04944466
4	0x3dd3f8ee	0.10350214
5	0xbc7be14e	-0.015373541
6	0x3d69c388	0.05707124
7	0xbaa583f9	-0.0012627832
8	0x3cbb547b	0.022867432
9	0x3d27450f	0.040837344
10	0x3d185810	0.037193358
11	0xbc9d4bfb	-0.01920127
12	0xbd9b9a9c	-0.07597849
13	0xbc9caebc	-0.019126289
14	0xbe061029	-0.13092102
15	0x3d5d66ef	0.054053243
16	0x3b975381	0.0046181087
17	0x3e1a506f	0.15069745
18	0x3c38465d	0.011247245
19	0xbafeed4e	-0.0019449384
20	0xbdd31e0e	-0.10308467
21	0xbbb501d0	-0.0055238977
22	0x3daf991e	0.08574127
23	0x3d0f537c	0.034991726
24	0xbd22db41	-0.039759878
25	0xbd204f45	-0.039138097
26	0x3d4caeeb	0.049971502
27	0x3df712a4	0.12064102
28	0x3dc6d9fa	0.097095445
29	0xbe361074	-0.17779714
30	0xbcb66415	-0.02226452
31	0x3d4d89d5	0.050180275
32	0xbc936e53	-0.017996943
33	0x3d94dfd2	0.07269253
34	0x3d5ba6cf	0.053625878
35	0x3d96bfe9	0.07360823
36	0x3d14601f	0.03622448
37	0x3e00548a	0.12532249
38	0x3d26a6b6	0.04068633
39	0xbd2d9470	-0.04237789
40	0xbd54e11d	-0.051972497
41	0x3ce060c1	0.027389886
42	0xbbe302cb	-0.006927823
43	0x3c4d2104	0.012520079
44	0xbd57a002	-0.05264283
45	0xbde67f87	-0.11254793
46	0x3cd61347	0.026132239
47	0x3b3ccf06	0.002880992
48	0x3ce55355	0.027993837
49	0x3d49ca86	0.049265407
50	0xbda4e687	-0.08051782
51	0xbd7859cc	-0.060632512
52	0x3ce5cbf3	0.028051352
53	0xbd5e1d30	-0.054227054
54	0x3d6ac2db	0.057314735
55	0x3d8e867f	0.06959247
56	0xbdccca5f	-0.09999537
57	0x3b95c200	0.0045702457
58	0x3dcab4c7	0.09897762
59	0x3d466788	0.04843858
60	0xbd388957	-0.045052852
61	0xbc5c3e10	-0.013442531
62	0xbdf1ea69	-0.11812288
63	0x3d303888	0.043022662
64	0x3c6eed1d	0.014582899
65	0xbd24f5be	-0.04027342
66	0x3d72a113	0.059235644
67	0x3cdd2db8	0.02699934
68	0xbdff3bca	-0.12462576
69	0xbd81a997	-0.06331175
70	0x3cfe9396	0.031076234
71	0xbd820dbb	-0.06350275
72	0x3c9da053	0.019241488
73	0xbd869d1a	-0.065729335
74	0xbd340fbb	-0.043960314
75	0xbc9ba839	-0.019001113
76	0xbcef2109	-0.029190557
77	0x3d7ff1c9	0.062486444
78	0x3d51709f	0.051132794
79	0x3d39b1c4	0.045335546
80	0x3b89cadc	0.004205091
81	0x3d896d34	0.06710282
82	0xbdcccf08	-0.100004256
83	0xbd211e64	-0.039335623
84	0x3d831e15	0.06402222
85	0xbdee94e7	-0.116494946
86	0xbcf23b3a	-0.029569257
87	0x3df929d0	0.12166178
88	0xbc01a51c	-0.0079129
89	0x3d173d20	0.036923528
90	0xbd8f981c	-0.070114344
91	0x3cea9972	0.028637622
92	0x3d65b36b	0.05607931
93	0x3cc6dd12	0.024275336
94	0x3d587803	0.052848827
95	0xbd6371ee	-0.055528574
96	0xbd529c84	-0.051418796
97	0x3c810a5c	0.01575201
98	0x3d5afb37	0.053462233
99	0x3e14d969	0.1453606
100	0x3d028746	0.031867288
101	0x3dcdc466	0.10047226
102	0xbc2a455e	-0.010392515
103	0xbe02f871	-0.12790085
104	0xbcda6503	-0.026659494
105	0x3d2b8f84	0.041884914
106	0xbd37670a	-0.044776
107	0x3e249aaf	0.16074632
108	0xbe00313d	-0.12518783
109	0xbd023dc9	-0.031797204
110	0x3dc9ed87	0.09859758
111	0xbd5e124d	-0.05421667
112	0x3e07b2e8	0.13251841
113	0xbd85b372	-0.06528367
114	0x3d44ff83	0.048095237
115	0xba58f45e	-0.00082761596
116	0xbe01b435	-0.126664
117	0x3df9b446	0.121925876
118	0x3d44d097	0.04805049
119	0xbd4f756e	-0.0506491
120	0x3cbb0320	0.022828639
121	0x3de09194	0.10965267
122	0x3d636a1d	0.05552112
123	0x3d3f86eb	0.046759527
124	0xbd768003	-0.060180675
125	0x3d739c0d	0.059474993
126	0x3b4ce5b3	0.003126484
127	0xba6b9a5a	-0.0008987539
128	0xbc422a50	-0.011850908
129	0x3c9334e9	0.017969565
130	0x3c8cdab0	0.017194122
131	0xbbb4fa18	-0.0055229776
132	0xbb5c0124	-0.0033570016
133	0x3b4cd6d1	0.003125597
134	0x3bcd2c6b	0.0062613986
135	0xbdebf99d	-0.11522219
136	0x3b9487a2	0.0045327703
137	0x3ceebeb6	0.029143672
138	0x3d84b105	0.06479076
139	0x3b60e774	0.0034317644
140	0xbdd6699a	-0.10469361
141	0x3cbce5cd	0.023058796
142	0xbd1b44d8	-0.03790745
143	0xbd1bc21b	-0.03802691
144	0xbd8af82b	-0.067856155
145	0x3c54e7b3	0.0129946945
146	0x37d0d710	2.4895679e-05
147	0x3dacadc5	0.084315814
148	0xbc52cccf	-0.012866213
149	0xbc66de93	-0.014091152
150	0x3d5e763e	0.054311983
151	0xbcd13176	-0.02553628
152	0xbca35205	-0.01993657
153	0x3d3b47a2	0.04572261
154	0x3d402ae5	0.046915907
155	0x3c465569	0.012105324
156	0x3a8840c3	0.0010395277
157	0xbd2d0d36	-0.042248927
158	0x3da21725	0.07914571
159	0x3c7663e0	0.0150384605
160	0xbe40599a	-0.1878418
161	0xbe22bde7	-0.15892754
162	0xbdbf433a	-0.09338994
163	0xbbb0dc41	-0.00539735
164	0x3d8dc700	0.06922722
165	0xbd31459c	-0.043279275
166	0xbcdb671d	-0.026782567
167	0x3d201fa8	0.03909269
168	0xbdd770d6	-0.105195686
169	0xbc407ba4	-0.011748228
170	0xbc4f1892	-0.012640135
171	0x3c6dbbcb	0.014510105
172	0xbd21f875	-0.039543588
173	0x3da355c1	0.07975341
174	0xbda0412e	-0.07824932
175	0xbd95ba69	-0.073109455
176	0x3d13663c	0.03598617
177	0x3c80bcf6	0.015715104
178	0x3dbecbfe	0.09316252
179	0xbd72a32d	-0.059237648
180	0x3b90090e	0.0043956107
181	0xbd27727f	-0.040880676
182	0x3c6ebcac	0.01457135
183	0xbdeb663a	-0.114941075
184	0xbdbb5853	-0.09147706
185	0xbd904470	-0.070443034
186	0xbbd31cc8	-0.00644264
187	0xbe143fe9	-0.14477505
188	0xbb6239cd	-0.0034519315
189	0x3df06da7	0.117396645
190	0x3de5be1e	0.112179026
191	0x3d98f628	0.074688256
192	0xbc996877	-0.01872657
193	0x3e1b7fa3	0.15185408
194	0x3d52d3df	0.051471587
195	0x3aa466ad	0.0012542807
196	0xbc9f4528	-0.019442156
197	0xbcca0752	-0.024661694
198	0x3e188813	0.14895658
199	0xbcc69d19	-0.024244832
200	0xbdb841e7	-0.08996945
201	0x3e183ed1	0.14867713
202	0x3dc10bfe	0.094261155
203	0x3cfbd73c	0.03074228
204	0xbe2709d0	-0.16312337
205	0x3d18ad9a	0.037274934
206	0x3c01b0a2	0.007915648
207	0x3c8aee27	0.016959263
208	0x3cfa395a	0.030544925
209	0x3da58e18	0.08083743
210	0xbd4155be	-0.04720091
211	0xbdcf3f56	-0.10119502
212	0xbdce6218	-0.10077304
213	0x3d655a4d	0.05599432
214	0x3dfa1e9e	0.12212871
215	0xbe166f1c	-0.14690822
216	0xbca233ca	-0.019800086
217	0xbcc5d019	-0.02414708
218	0x3d56120a	0.052263297
219	0xbdabc139	-0.08386464
220	0xbccaa7d8	-0.024738237
221	0x3d0a3b53	0.033747982
222	0xbd3be290	-0.045870364
223	0xbe2cc22f	-0.1687095
224	0xbdd8aac9	-0.1057945
225	0x3d5c425f	0.053774234
226	0x3ccfccf4	0.025366284
227	0xbd049c21	-0.03237546
228	0xbd5fb0fc	-0.054612145
229	0x3d3326bc	0.04373811
230	0xbc959c35	-0.018262962
231	0xbba81364	-0.0051292647
232	0xbc6a2771	-0.01429163
233	0xbcde4e6e	-0.027137008
234	0x3e15bd1a	0.14622918
235	0x3cac4354	0.021028198
236	0xbca1a8d4	-0.019733824
237	0x3dbed8db	0.09318706
238	0xbc1fc0d0	-0.00975056
239	0xbde48ac6	-0.111592814
240	0x3e03fb94	0.12888938
241	0x3dd24fe2	0.10269143
242	0xbd9e216b	-0.07721218
243	0x3cc2adab	0.023764452
244	0x3cf8230f	0.030290155
245	0xbd0ee39d	-0.034885038
246	0x3dbfdb17	0.0936796
247	0x3d5d5823	0.05403913
248	0x3d84e64b	0.064892374
249	0xbe05ab62	-0.13053659
250	0x3cc24c43	0.023718005
251	0x3d1d4219	0.038393114
252	0x3d141a3b	0.036157828
253	0xbddd937d	-0.10819147
254	0x3c2be903	0.010492566
255	0xbd16a281	-0.03677607

conv3.bias f4 [128]
0	0xbce8d50d	-0.028421903
1	0x3df57e47	0.11986976
2	0xbd2fb232	-0.04289455
3	0xbe1bdb04	-0.15220267
4	0x3d0f6294	0.03500612
5	0xbb9fc458	-0.004875701
6	0xbbd4a759	-0.006489676
7	0x3e1fdb75	0.1561106
8	0x3d8ef17f	0.069796555
9	0xbb2aa44b	-0.0026037868
10	0x3de96bc9	0.113975115
11	0xbd868bda	-0.06569643
12	0xbce9b639	-0.028529273
13	0xbd9c9e8e	-0.076474294
14	0xbc19d33c	-0.009388741
15	0xbd0fe23c	-0.035127863
16	0x3daa7a3b	0.08324095
17	0xb8f4380e	-0.00011645268
18	0xbd7075a8	-0.058705956
19	0x3d257ba2	0.04040111
20	0xbd023c35	-0.0317957
21	0x3a112632	0.00055370026
22	0xbd9a8173	-0.07544222
23	0xbe0c08a2	-0.13675168
24	0x3dedcba5	0.11611108
25	0xbc033d04	-0.008010153
26	0xbd4e714d	-0.05040102
27	0xbd158477	-0.03650328
28	0x3cc0e32f	0.02354583
29	0xbc326554	-0.010888416
30	0xbd96f1df	-0.07370352
31	0xbd97797b	-0.073962174
32	0xbc8fbc8f	-0.017545966
33	0xbc5f2ddf	-0.013621776
34	0x3df25e4b	0.11834391
35	0x3cab4bce	0.02091017
36	0xbd8aac35	-0.06771127
37	0xbd964fe7	-0.07339459
38	0xbd93bf01	-0.072141655
39	0xbdb186e9	-0.0866831
40	0xbb8ae101	-0.0042382483
41	0xbce1f368	-0.027581885
42	0x3cbe1182	0.023201708
43	0xbe01a657	-0.1266111
44	0x3d8ff82a	0.070297554
45	0xbd0d78c3	-0.034538995
46	0x3c223cb1	0.009902165
47	0x3d06269a	0.032751657
48	0xbb73558c	-0.0037129847
49	0xbd7be371	-0.061496202
50	0xba283337	-0.0006416323
51	0x3d982c1e	0.0743029
52	0x3df6be94	0.12048069
53	0xbd9f1735	-0.07768098
54	0x3ddfc0ca	0.109254435
55	0x3c93dcc3	0.018049603
56	0xbd2d35cf	-0.042287644
57	0xbdb87934	-0.09007493
58	0x3ad8a93d	0.0016529929
59	0xbb4f8081	-0.0031662288
60	0xbcc4f2f6	-0.024041634
61	0xbb54b27c	-0.0032455018
62	0x39727626	0.00023122932
63	0x3d0e9e06	0.03481867
64	0x3d88aebc	0.06673953
65	0x3b872793	0.0041245907
66	0xbdfe0c3b	-0.124046765
67	0x3decd796	0.11564557
68	0x3cbb868b	0.022891304
69	0x3e44ad2f	0.1920669
70	0x3d69de5b	0.05709682
71	0xbdcd511a	-0.100252345
72	0xbe275807	-0.16342174
73	0xbd6e73c5	-0.058215875
74	0xbe0d847f	-0.13820074
75	0xbcfd1b6f	-0.03089687
76	0xbe27a95e	-0.16373202
77	0x3c9c8775	0.01910756
78	0xbcdfa38c	-0.027299665
79	0xbbc9d882	-0.006159843
80	0xbc588276	-0.013214698
81	0x3e88f71c	0.2675103
82	0x3e0a8822	0.13528493
83	0xbcf14e0d	-0.029456163
84	0xbc90690b	-0.017628213
85	0x3e01796d	0.12643977
86	0xbdbbe427	-0.09174376
87	0xb6bab0ca	-5.563813e-06
88	0x3e460d77	0.19341074
89	0xbda3b07e	-0.079926476
90	0xbcb8575f	-0.0225026
91	0xbe0601c8	-0.13086617
92	0xbddb67be	-0.107131466
93	0x3da53979	0.08067603
94	0x3da11e6f	0.07867133
95	0x3e122334	0.14271241
96	0xbd7a00f8	-0.06103608
97	0xbafca0af	-0.0019273962
98	0x3e65455f	0.22389744
99	0x3d3e5aaa	0.046473183
100	0xbd47676f	-0.048682626
101	0xbd99d6ba	-0.07511659
102	0xbc18c705	-0.009324794
103	0xbd76d426	-0.060260914
104	0xbe04d0e5	-0.12970312
105	0xbd726738	-0.05918047
106	0xbd3be527	-0.045872834
107	0xbb97e288	-0.004635159
108	0x3d277e4d	0.040891934
109	0xbce6e5f2	-0.028185818
110	0xbbaa43ba	-0.005196062
111	0x3cbffba2	0.023435418
112	0xbd29ab0a	-0.04142288
113	0xbd1b01c3	-0.037843477
114	0x3e16f9de	0.14743754
115	0xbce716b8	-0.028209075
116	0x3dba8479	0.091072984
117	0xbd7d7a09	-0.06188396
118	0xbdb8688d	-0.090043165
119	0xbd7120ae	-0.058869056
120	0xbcc4fc7c	-0.024046175
121	0xbd3a5896	-0.04549464
122	0xbc809fc6	-0.015701186
123	0xbd448d5b	-0.04798637
124	0xbcae0969	-0.021244721
125	0x3dc6195d	0.096728064
126	0x3cc5a0fd	0.024124617
127	0x3dbc8941	0.092058666

act_conv1.weight f4 [4, 128, 1, 1]
0	0xbd55f209	-0.052232776
1	0x3e7d0569	0.24709095
2	0xbe1a0f48	-0.15044892
3	0xbd32c379	-0.04364345
4	0xbdd79301	-0.10526086
5	0xbd0c0ef0	-0.034193933
6	0x049e8c6d	3.7274582e-36
7	0x3e11e4b6	0.14247403
8	0x3d421bf7	0.04738995
9	0x054037ba	9.038032e-36
10	0x3da64277	0.08118146
11	0x3dc73615	0.09727112
12	0x3d89964d	0.06718121
13	0xbe5a4b7b	-0.21317856
14	0xbcb221b8	-0.021744594
15	0xbdd55bc5	-0.10417894
16	0x3d3c5c7c	0.045986637
17	0x33a8d89e	7.862512e-08
18	0xbd9cd90f	-0.07658588
19	0x3d757d00	0.059933662
20	0xbec50abd	-0.38484755
21	0xbe1908d8	-0.1494478
22	0xbe0701c0	-0.13184261
23	0x3e9ad0a3	0.30237302
24	0x3dc9cbc4	0.09853318
25	0x3e24eb12	0.16105297
26	0x3be05930	0.0068465695
27	0x3d7a7d11	0.06115443
28	0x3d8a0994	0.06740108
29	0x9a4c8a84	-4.2298103e-23
30	0x3e8a1dd2	0.26975876
31	0x3e1f1654	0.15535861
32	0xbe84c8af	-0.2593436
33	0x3dae06ec	0.08497414
34	0x3ea718b8	0.32636046
35	0x3dd50072	0.104004756
36	0xbe4f83fa	-0.20265189
37	0xbe36b6bf	-0.1784315
38	0x3eb4915e	0.35267156
39	0x3e01dde0	0.12682295
40	0x3b06e511	0.0020583312
41	0xbe4a5457	-0.19758736
42	0xbdb84a5c	-0.08998558
43	0xbd6b2516	-0.057408415
44	0x3e1175fa	0.1420516
45	0x3e3b815b	0.18311064
46	0xbc48edce	-0.012263728
47	0x3e7a1d53	0.24425249
48	0xbe34758a	-0.17622963
49	0x3e192a16	0.14957461
50	0x0647d87d	3.758679e-35
51	0x3ef478f4	0.4774853
52	0x3e75728a	0.23969474
53	0xbe1ae55e	-0.15126559
54	0x3ceb2a65	0.028706739
55	0x3e29d99f	0.16586922
56	0x3ca6506a	0.020302016
57	0x3e8452dc	0.25844467
58	0xbc8b32bf	-0.016991971
59	0x84dba808	-5.1640965e-36
60	0xa815a7fe	-8.307589e-15
61	0x10bc0cd0	7.4172666e-29
62	0x3e1b3c5e	0.15159747
63	0x3d91d9f6	0.07121651
64	0x3e0b9b9c	0.13633579
65	0x3d8c2815	0.068435825
66	0xbdf58859	-0.11988897
67	0xbd8535b4	-0.06504384
68	0x3d8186c7	0.06324535
69	0x3e66207f	0.22473334
70	0x3ec8bd72	0.39207035
71	0x3e08002f	0.1328132
72	0xbd92c565	-0.07166556
73	0xbe82579d	-0.2545747
74	0xbd8c4f84	-0.06851104
75	0xbe5d4429	-0.21608032
76	0xbd84cd81	-0.06484509
77	0xbe412dc2	-0.18865111
78	0xbdeede66	-0.11663513
79	0x3d369804	0.044578567
80	0x85d198d5	-1.9710407e-35
81	0x3eb6f75c	0.35735595
82	0x3eaabc88	0.33346963
83	0x3e51aee9	0.20476879
84	0xbd152643	-0.036413442
85	0x3e378865	0.17923124
86	0xbe16b60b	-0.14717881
87	0xb58d92e1	-1.0548066e-06
88	0x3e17290b	0.1476175
89	0xbd8fe317	-0.07025736
90	0x3e17eeb6	0.14837155
91	0xbd04bb43	-0.03240515
92	0x3eac957d	0.337078
93	0xbd7a96a3	-0.061178815
94	0x3d8b16b1	0.067914374
95	0xbe89c867	-0.26910707
96	0xbc8b52a1	-0.017007174
97	0x839da28e	-9.264951e-37
98	0x3e0d72c4	0.13813311
99	0x3e5811f0	0.21100593
100	0xbdc7efc5	-0.09762529
101	0xbdb8523a	-0.090000585
102	0xbd8b7c7f	-0.06810855
103	0xbea83315	-0.32851472
104	0x3d3b21f2	0.04568667
105	0xbe726cda	-0.23674336
106	0xbd97994f	-0.07402288
107	0x9b27d129	-1.38815e-22
108	0x3e0a09cc	0.134803
109	0xbe522217	-0.20520817
110	0x3ea40846	0.32037562
111	0xbcd16fcd	-0.025566006
112	0x3de1073e	0.109877095
113	0x3de4fb60	0.111807585
114	0xbca7067f	-0.02038884
115	0x3e80d34a	0.251612
116	0x3e1f7ee6	0.15575752
117	0x3e1d5f29	0.15368332
118	0x3da509bf	0.080584995
119	0xbd57ec00	-0.0527153
120	0x3ddffc38	0.10936779
121	0x3d68dd5e	0.056851737
122	0xbe6ef106	-0.2333413
123	0xbef24e0f	-0.4732518
124	0x3ebbcdad	0.36680356
125	0x3e20e686	0.15712938
126	0xbf04a832	-0.51819146
127	0x3edb8e81	0.4288216
128	0xbda61d01	-0.08111001
129	0x3d8eac65	0.069664754
130	0x3e3306ae	0.17483017
131	0xbda7d4f3	-0.08194914
132	0x3d9ade22	0.075619
133	0xbe481390	-0.19538713
134	0x8587121c	-1.2701991e-35
135	0x3e2e1e8e	0.17003843
136	0x3d9f35ca	0.07773931
137	0x842de9a5	-2.0443337e-36
138	0x3df6577d	0.12028406
139	0x3d947345	0.072485484
140	0x3d4d35fe	0.05010032
141	0xbe01ef81	-0.1268902
142	0xbd9038b9	-0.07042069
143	0x3d8b4a7e	0.06801318
144	0x3e14f4dc	0.14546531
145	0xb8f8009e	-0.000118256765
146	0x3d374350	0.04474193
147	0xbe4ad8ff	-0.1980934
148	0x3d85dd20	0.06536317
149	0x3de0381e	0.109482035
150	0x3df90fc4	0.1216121
151	0x3d5e1cc0	0.054226637
152	0xbdf53284	-0.11972526
153	0xbd78dd66	-0.060758017
154	0xbe354afd	-0.17704387
155	0xbdc555bb	-0.096354924
156	0x3c241680	0.01001513
157	0x866f16b7	-4.4967592e-35
158	0x3d309c8c	0.043118045
159	0xbe2df5f5	-0.16988356
160	0xbdeca98b	-0.11555775
161	0xbd72209c	-0.05911313
162	0xbe827822	-0.2548228
163	0x3d5ba7c8	0.053626806
164	0x3d72db17	0.05929097
165	0x3c84e658	0.016223118
166	0xbe49660f	-0.19667839
167	0xbca05681	-0.019572498
168	0xbc0abeb9	-0.008468323
169	0x3d8b2bd8	0.06795472
170	0xbda5afce	-0.08090173
171	0xbd976746	-0.07392745
172	0x3dfc23a7	0.12311488
173	0xbb5f6a64	-0.0034090513
174	0x3e7967ce	0.24356005
175	0xbe3d962d	-0.18514319
176	0x3e1a4539	0.15065469
177	0xbdc72198	-0.097232044
178	0x87b9f3a2	-2.79789e-34
179	0x3e8e3c23	0.27780256
180	0xbe60a83c	-0.21939176
181	0xbdb3c157	-0.08777111
182	0x3e00dc25	0.12583978
183	0x3e11aff0	0.14227271
184	0x3cd1393a	0.025539983
185	0x3da88466	0.08228378
186	0x3e365301	0.17805101
187	0x85015521	-6.0811866e-36
188	0x3800c3b5	3.0699845e-05
189	0x93aebcba	-4.4109874e-27
190	0x3e1d51f7	0.15363298
191	0xbe2d1b7d	-0.16905017
192	0x3de6f54c	0.112772554
193	0xbdf71f0a	-0.12066467
194	0xbde4ecb2	-0.111779585
195	0x3d02080b	0.03174595
196	0x3dc7a53b	0.09748312
197	0xb9839301	-0.00025095794
198	0xbd2c6f6d	-0.04209845
199	0x3c0d168a	0.008611331
200	0xbe713c9a	-0.23558274
201	0xbebc0ecd	-0.36730042
202	0x3dfb0733	0.122572325
203	0xbd130a2a	-0.035898365
204	0x3b1a0e22	0.002350696
205	0xbe2557f1	-0.16146828
206	0xbe3bff4a	-0.18359104
207	0x3cfd669e	0.03093272
208	0x2686884b	9.33506e-16
209	0xbd9640cc	-0.07336578
210	0x3d8ce10d	0.068788625
211	0x3c10735a	0.008816564
212	0x3ddd0352	0.10791649
213	0x3c3b05c6	0.011414951
214	0xbe094765	-0.13406141
215	0xb4f26c80	-4.5154957e-07
216	0x3b5add7b	0.0033396173
217	0xbd820d99	-0.0635025
218	0x3e66c49b	0.22535937
219	0x3e0e456a	0.13893667
220	0x3e1b79c4	0.15183169
221	0xbd24a194	-0.040193155
222	0x3c42268e	0.0118500125
223	0x3e1f4b1d	0.15555997
224	0x3e134490	0.14381623
225	0x1ab1d97c	7.355685e-23
226	0xbe04813d	-0.12939925
227	0xbe1d0fdb	-0.1533808
228	0x3e1e718e	0.15473005
229	0x3ebe3b2a	0.37154514
230	0x3e15daca	0.14634243
231	0xbe80ea2c	-0.2517866
232	0x3de1dfab	0.110289894
233	0x3e7d068a	0.24709526
234	0xbcbe92a2	-0.02326328
235	0xb767c9ce	-1.3815659e-05
236	0x3e023ec4	0.12719256
237	0xbddb8d48	-0.10720307
238	0xbd829036	-0.06375162
239	0xbb1012d4	-0.0021983879
240	0xbe152e47	-0.14568435
241	0x3d1dccc8	0.038525373
242	0xbd09586b	-0.033531588
243	0x3e4cf8a0	0.20016718
244	0x3d818296	0.063237354
245	0xbd519274	-0.05116506
246	0x3e23a0a4	0.15979248
247	0x3d7082e2	0.05871857
248	0x3da6307a	0.08114715
249	0xbc9b3037	-0.018943889
250	0x3e3f7df3	0.1870039
251	0xbcee4d64	-0.029089637
252	0xbebfc016	-0.37451237
253	0x3cbb5b33	0.022870636
254	0x3de91877	0.113816194
255	0x3e963ef2	0.29344898

act_conv1.bias f4 [4]
0	0x3e4e51d5	0.20148404
1	0x3b051d26	0.0020311563
2	0x3e57245d	0.21009965
3	0xbc5d4979	-0.013506287

act_fc1.weight f4 [36, 144]
0	0xbeaf25be	-0.34208483
1	0xbe3e0200	-0.1855545
2	0xbdc547c6	-0.0963283
3	0xbde81895	-0.11332814
4	0xbe54722f	-0.20746683
5	0xbc99b12a	-0.018761236
6	0x3cf3fcb4	0.029783584
7	0xbca32cc9	-0.019918816
8	0xbd3767c5	-0.044776697
9	0xbd5a5763	-0.053305995
10	0xbe054fd7	-0.13018738
11	0xbdd60699	-0.10450477
12	0xbe538253	-0.20655183
13	0xbc87d3d5	-0.016580502
14	0xbd2f8048	-0.042846948
15	0x3d49c2de	0.049258105
16	0x3bcf61e0	0.0063288063
17	0xbd7508e8	-0.059822947
18	0x3e6bef1a	0.23040429
19	0xbdaf6407	-0.085640006
20	0xbe0b2ea2	-0.13592008
21	0xbca885b3	-0.020571565
22	0xbd53cfd1	-0.05171186
23	0x3b87d097	0.004144739
24	0x3e9e1e2e	0.308824
25	0x3e3d6a88	0.1849767
26	0x3e1352a3	0.14386992
27	0xbc404eeb	-0.0117375655
28	0xbe3c8720	-0.18410921
29	0xbe18379e	-0.14864966
30	0xbadcff04	-0.0016860669
31	0xbe0b7a6f	-0.13620923
32	0x3db58a53	0.08864274
33	0x3e036cbd	0.12834449
34	0xbb3686cd	-0.0027851344
35	0xbde0db17	-0.10979288
36	0xbae0d641	-0.0017153696
37	0xbd9fa559	-0.077952094
38	0xbcadd768	-0.021220878
39	0xbd8622ee	-0.06549631
40	0x3d2177dd	0.03942095
41	0x3d92bc90	0.07164872
42	0x3b94bb4a	0.004538928
43	0x3d1082c3	0.035280954
44	0x3da82f57	0.08212154
45	0x3da5f628	0.08103591
46	0x3dce071c	0.1005995
47	0x3d8f5742	0.06999065
48	0x3c838859	0.016056227
49	0x3c88f8f5	0.016720274
50	0xbc27d417	-0.010243437
51	0x3e5470e8	0.20746195
52	0x3e1ac7df	0.15115307
53	0x3ca2097a	0.01977991
54	0x3e056914	0.13028365
55	0x3c25ccbd	0.010119614
56	0x3d19a813	0.037513804
57	0x3d7e67f0	0.06211084
58	0x3e0889c4	0.13333803
59	0xbd62e918	-0.055398077
60	0xbf176759	-0.5914207
61	0xbd17c252	-0.037050553
62	0xbe12ccba	-0.1433591
63	0x3cfd172c	0.030894838
64	0x3d3c6f16	0.046004377
65	0x3d1d7beb	0.038448256
66	0xbddbc29b	-0.107304774
67	0xbf3767fa	-0.7164303
68	0x3dd17177	0.1022672
69	0x3e33169a	0.1748909
70	0x3df232af	0.118260734
71	0x3db207db	0.086929046
72	0xbee18aa5	-0.4405109
73	0xbd4790a6	-0.048721932
74	0xbe728198	-0.23682249
75	0xbe393bbe	-0.18089196
76	0xbdb3d608	-0.087810576
77	0x3e214feb	0.15753143
78	0xbe10ab7e	-0.14127919
79	0xbe1ff436	-0.15620503
80	0x3d4b9e91	0.049711768
81	0xbdb00ce7	-0.08596211
82	0xbd8d80b9	-0.069093175
83	0xbe4444f8	-0.19166934
84	0xbe2f1872	-0.17099169
85	0x3d6a5064	0.057205573
86	0xbda61ada	-0.0811059
87	0x3c03f7c6	0.008054679
88	0x3d4bcc7e	0.049755566
89	0xbe5a6ed0	-0.21331334
90	0x3dbc6af0	0.09200084
91	0xbce95906	-0.028484832
92	0xbd0689d2	-0.03284628
93	0xbe79b3ba	-0.24384966
94	0x3d6fdc71	0.05855984
95	0xbd0b3489	-0.03398565
96	0x3e13be1f	0.14427994
97	0xbd3b93c9	-0.045795236
98	0xbd4694c0	-0.048481703
99	0x3c827a11	0.015927346
100	0xbe03e60d	-0.12880726
101	0xbe26fd84	-0.16307646
102	0xbeb5824c	-0.3545097
103	0xbe90d180	-0.28284836
104	0x3e58fada	0.21189442
105	0xbcbd550e	-0.023111846
106	0xbdca8404	-0.09888461
107	0xbe2058ba	-0.15658846
108	0x3e613827	0.21994077
109	0x3e58edb4	0.21184427
110	0xbd571658	-0.052511543
111	0xbd635f0e	-0.055510573
112	0xbea154dd	-0.31510058
113	0xbd215833	-0.039390754
114	0x3d8c5b51	0.06853355
115	0x3d0da5b8	0.03458187
116	0xbe28493b	-0.16434185
117	0x3d648f6d	0.055800844
118	0x3e03b78e	0.1286299
119	0xbdea3c54	-0.11437288
120	0x3dd783ae	0.10523163
121	0x3d2d3b79	0.042293046
122	0xbde8f3e8	-0.113746464
123	0xbe38d850	-0.18051267
124	0xbe16c798	-0.14724576
125	0xbda703e1	-0.08155037
126	0x3e869ddc	0.26292312
127	0x3dbb9b02	0.09160425
128	0x3d294c44	0.0413325
129	0xbe93aa84	-0.2884103
130	0xbea12376	-0.31472367
131	0xbb181227	-0.002320418
132	0xbeab0db7	-0.334089
133	0x3ceea137	0.029129608
134	0x3e72d7e5	0.2371517
135	0x3e35e583	0.17763333
136	0xbd3d38d1	-0.046196762
137	0x3e264569	0.16237415
138	0xbea89526	-0.3292629
139	0x3c98adea	0.018637616
140	0xbe254556	-0.16139731
141	0x3d9050fb	0.07046696
142	0xbe1430c5	-0.14471729
143	0x3bea4832	0.0071497196
144	0xbe5f3a1f	-0.21799515
145	0xbe22b05a	-0.15887585
146	0xbd0152c4	-0.031573072
147	0xbd9d91c7	-0.076938204
148	0xbe18756b	-0.14888541
149	0x3d93887c	0.07203767
150	0x3d74e908	0.05979255
151	0xbdb0e74c	-0.086378664
152	0xbdb1646f	-0.08661734
153	0x3bd8c4e6	0.006615269
154	0xbe25ec08	-0.1620332
155	0xbcfb0b0b	-0.030644914
156	0xbd9fcd0f	-0.07802784
157	0x3dce7013	0.1007997
158	0xbc4de51e	-0.012566833
159	0xbd8daacf	-0.06917345
160	0xbde1e9bb	-0.11030909
161	0xbe0d57b9	-0.13802995
162	0xbc7b30cc	-0.015331458
163	0x3e17fc88	0.14842427
164	0xbda8f4dd	-0.08249829
165	0xbd741ea1	-0.059599523
166	0xbdcdc299	-0.10046882
167	0xbccbd7ed	-0.024883235
168	0xbe93b918	-0.28852153
169	0x3e58ef09	0.21184935
170	0x3c8b3b57	0.016996069
171	0x3dd678d3	0.10472264
172	0xbe0d6a60	-0.1381011
173	0xbd080be4	-0.033214465
174	0x3e310581	0.17287256
175	0x3de8ae1b	0.11361333
176	0xbe2d2f2f	-0.1691253
177	0x3ddb78f8	0.10716432
178	0x3e37dee7	0.17956124
179	0xbde531ab	-0.11191114
180	0xbe1325aa	-0.14369836
181	0x3e4dbe02	0.20092013
182	0xbd675766	-0.056479834
183	0x3d4faf7a	0.050704457
184	0x3d1f7682	0.038931377
185	0xbc825457	-0.015909357
186	0xbd531bef	-0.05154031
187	0xbdcaf86f	-0.09910666
188	0xbd99f31f	-0.07517075
189	0x3cb7535a	0.022378612
190	0x3e28ce6f	0.16484998
191	0xbcd44390	-0.025911123
192	0x3f044f8a	0.51683867
193	0xbe286065	-0.16443022
194	0xbdddf622	-0.10837962
195	0x3e016970	0.12637877
196	0x3e89528d	0.26820794
197	0xbdbc0527	-0.0918067
198	0x3d9eee60	0.0776031
199	0x3cc057af	0.02347931
200	0x3df9770a	0.12180908
201	0x3c8a49a8	0.016880825
202	0xbd6f8b36	-0.05848237
203	0xbd2bef2a	-0.04197613
204	0x3e8fe0b2	0.28101116
205	0xbf37f249	-0.7185407
206	0x3e06819a	0.13135377
207	0xbd5d30a2	-0.054001458
208	0x3a62afe7	0.00086474273
209	0x3cbda49a	0.023149777
210	0x3e406256	0.18787512
211	0x3d0afd82	0.03393317
212	0xbf582aa3	-0.8444006
213	0x3d65d7a7	0.056113865
214	0x3de4b197	0.11166685
215	0xbe06c3e9	-0.13160671
216	0xbe97e244	-0.29664814
217	0x3d07421c	0.03302203
218	0x3a821b5f	0.000992637
219	0xbe56f18f	-0.20990585
220	0xbdbca271	-0.09210671
221	0xbe93c391	-0.28860143
222	0xbde2b0b8	-0.11068863
223	0xbe357750	-0.17721295
224	0xbda8357e	-0.08213328
225	0xbd90398a	-0.07042225
226	0xbdfab7d7	-0.12242096
227	0xbe500a28	-0.20316374
228	0xbe21283c	-0.15738004
229	0x3e243984	0.16037565
230	0xbcb03bf4	-0.021512963
231	0xbc59c291	-0.013291017
232	0x3de58f79	0.11209006
233	0xbd73d044	-0.05952479
234	0xbdb2106d	-0.08694539
235	0x3d49386e	0.04912608
236	0x3dbe5093	0.09292712
237	0xbd431fea	-0.047637857
238	0xbe08d6b7	-0.13363157
239	0xbd3a2b02	-0.04545117
240	0xbe52b958	-0.20578516
241	0xbcb8cc48	-0.022558346
242	0xbe3870e9	-0.18011822
243	0xbd77d55a	-0.060506202
244	0xbe27abb5	-0.16374095
245	0x3cc45252	0.023965035
246	0x3e464084	0.19360548
247	0xbf1d32b7	-0.6140551
248	0xbf2c96cf	-0.67417616
249	0x3e0a64c2	0.13514999
250	0xbe05f964	-0.13083416
251	0xbe1f7547	-0.15572082
252	0xbde90f57	-0.11379879
253	0x3e3d04ed	0.1845891
254	0x3e33867f	0.17531775
255	0x3d0ab50a	0.03386406

act_fc1.bias f4 [36]
0	0xbf028438	-0.50983
1	0xbeeb09b0	-0.45905828
2	0xbd1fef2f	-0.039046463
3	0xbd946b23	-0.07246997
4	0xbf02e4b3	-0.5113022
5	0xbee31c47	-0.4435751
6	0xbebff2a7	-0.37489817
7	0xbd7d36d9	-0.061819885
8	0x3ed1dc0e	0.409882
9	0x3ee71847	0.4513571
10	0x3d10653e	0.035252802
11	0xbedfe066	-0.4372589
12	0xbe036b29	-0.12833847
13	0x3e9f5358	0.31118274
14	0x3ded140b	0.115760885
15	0x3e3ebac3	0.18625931
16	0x3ed07519	0.40714338
17	0xbe04e51b	-0.12978022
18	0xbd2ba30c	-0.04190354
19	0x3ef98078	0.48730826
20	0x3e0d002e	0.137696
21	0x3e17eb53	0.14835863
22	0x3ed45094	0.41467726
23	0xbe286300	-0.16444016
24	0xbee43c99	-0.44577482
25	0xbba1e5f0	-0.0049407408
26	0x3ec5e0ee	0.3864817
27	0x3ef40170	0.47657347
28	0x3ca9e1e4	0.020737596
29	0xbee1b021	-0.44079688
30	0xbea1a0c1	-0.31567958
31	0xbede1052	-0.43371826
32	0xbe26f72c	-0.16305226
33	0xbdaf978a	-0.08573826
34	0xbeb5baa8	-0.3549397
35	0xbef44f62	-0.47716814

val_conv1.weight f4 [2, 128, 1, 1]
0	0xbc444d16	-0.011981269
1	0x3e19c554	0.15016681
2	0x3e170d96	0.14751276
3	0x3d4380f7	0.047730412
4	0xbd3497f7	-0.044090237
5	0xbca6e01f	-0.020370541
6	0xb70b83ec	-8.315761e-06
7	0x3d221ba0	0.039577127
8	0xbe5d6b93	-0.21623068
9	0xb6231481	-2.4300828e-06
10	0x3c82ded5	0.015975395
11	0xbeb2027d	-0.34767523
12	0xbe9d8d57	-0.30771896
13	0xbe2275d0	-0.15865254
14	0xbd218ffc	-0.039443955
15	0x3c4a1f65	0.012336587
16	0xbe199ec1	-0.15001966
17	0x392f1bb3	0.0001669962
18	0x3e7f41ee	0.24927494
19	0xbed23ab8	-0.41060424
20	0xbea4f0ee	-0.32215065
21	0x3dbe05de	0.09278463
22	0xbecd9049	-0.40149143
23	0xbed29fef	-0.41137645
24	0x3d737162	0.059434302
25	0xbe2b0deb	-0.16704528
26	0x3dab8f2d	0.08376918
27	0xbe70fb3b	-0.23533337
28	0x3e3d9804	0.1851502
29	0xbca29111	-0.019844564
30	0xbea02e3c	-0.31285274
31	0x3e296286	0.1654149
32	0x3c588074	0.013214219
33	0x3edd1f96	0.4318816
34	0xbe177fff	-0.1479492
35	0xbce5455c	-0.027987175
36	0x3df5b1f8	0.119968355
37	0x3eaf6c93	0.34262523
38	0x3e067a17	0.13132511
39	0x3e61c329	0.22047104
40	0xbe8f7429	-0.2801831
41	0x3e8c6e64	0.2742797
42	0xbeb5401c	-0.35400474
43	0xbe875f27	-0.26439783
44	0xbde0f57b	-0.10984322
45	0x3e7848df	0.24246548
46	0x3d8c46a8	0.06849414
47	0x3d99bc84	0.075066596
48	0xbb9bdf85	-0.00475687
49	0x3e845943	0.2584935
50	0xb7e06a7e	-2.675247e-05
51	0xbb9c88b0	-0.0047770366
52	0xbd722ddd	-0.05912577
53	0x3d90e1af	0.07074296
54	0x3e7704cf	0.24122928
55	0x3ded4ce7	0.115869336
56	0xbb65f627	-0.0035089345
57	0x3eb674b8	0.35635924
58	0xbe03bc4c	-0.12864798
59	0xb90a5879	-0.00013193664
60	0xbbc5e259	-0.0060389456
61	0xb93eff87	-0.00018215003
62	0xbdaaa98d	-0.083331205
63	0xbe469072	-0.19391039
64	0x3cb61ead	0.022231424
65	0xbe8fe5f2	-0.28105122
66	0xbe5b7f9b	-0.21435396
67	0x3c27d78c	0.0102442615
68	0xbe1d15ce	-0.15340349
69	0x3bd35924	0.0064498354
70	0x3d46c89d	0.048531163
71	0xbe3503d1	-0.17677237
72	0x3e6c3b1a	0.2306942
73	0xbe1992fe	-0.1499748
74	0x3e779ba7	0.2418047
75	0x3e0cf117	0.13763843
76	0x3dea756c	0.11448178
77	0x3d4f2a1b	0.050577264
78	0xbe2f5ed4	-0.17126018
79	0x3d4b0a40	0.049570322
80	0xba68da21	-0.00088826014
81	0xbe363d02	-0.1779671
82	0xbd76636d	-0.060153414
83	0x3e3d919e	0.1851258
84	0xbe70aa32	-0.23502424
85	0x3e8bfb1c	0.2734002
86	0x3dd9235b	0.10602447
87	0xbb0952a2	-0.0020953794
88	0x3c0eeb49	0.008723089
89	0x3e237624	0.15963036
90	0x3e978435	0.29593053
91	0x3e5a0473	0.2129076
92	0x3df42547	0.119211726
93	0xbe248daa	-0.16069666
94	0x3e5d0961	0.21585609
95	0xbe0b9faf	-0.13635133
96	0xbe984246	-0.29738063
97	0x37c6fdf7	2.3721701e-05
98	0x3d2595d8	0.040426105
99	0xbe6a87a4	-0.22903305
100	0x3e799d0e	0.24376318
101	0xbed0b926	-0.40766257
102	0xbe555771	-0.20834137
103	0x3e0df064	0.13861233
104	0x3e1b7f9a	0.15185395
105	0xbdf3c3c7	-0.11902576
106	0xbeb19099	-0.34680632
107	0x3cfdeb43	0.03099597
108	0x3e26137c	0.1621837
109	0x3d776548	0.060399324
110	0xbcb39849	-0.021923201
111	0x3d7307c4	0.059333578
112	0xbea81518	-0.32828593
113	0x3e590c22	0.21196035
114	0x3ce003c6	0.02734555
115	0xbdc5f245	-0.0966535
116	0xbdd44840	-0.10365343
117	0xbea26516	-0.31717747
118	0x3eb108b7	0.3457696
119	0x3e182789	0.14858831
120	0xbe8570de	-0.26062673
121	0xbe4d0c55	-0.20024236
122	0xbd94f0a6	-0.072724625
123	0x3e0be919	0.13663138
124	0x3d15ca42	0.03656984
125	0xbe9ffeaf	-0.31248996
126	0xbe1d2474	-0.15345937
127	0x3e6a7981	0.22897913
128	0xbca9112b	-0.02063807
129	0xbd0c77f8	-0.0342941
130	0xbd0ab163	-0.033860575
131	0x3dd8df38	0.105894506
132	0xbd815300	-0.06314659
133	0x3cae84dc	0.021303587
134	0x84e90489	-5.47822e-36
135	0xbd5d517d	-0.05403279
136	0xbdab5eb9	-0.08367676
137	0x84d32967	-4.9643884e-36
138	0x3c148fc9	0.009067484
139	0x3c176309	0.00923992
140	0xbb8c6357	-0.004284303
141	0x3c8a665b	0.01689451
142	0xbd227cc2	-0.03966976
143	0xbda00456	-0.07813327
144	0xbd36f544	-0.044667497
145	0xb99540ab	-0.00028467676
146	0x3c29f75f	0.010373919
147	0x3c17f990	0.009275809
148	0x3caa720e	0.020806339
149	0x3d0ee074	0.034882024
150	0xbd08f671	-0.03343815
151	0x3cd0d095	0.025490085
152	0x3cab7184	0.020928152
153	0x3c977502	0.01848841
154	0xbd2e42c9	-0.04254416
155	0xbd459d87	-0.048245933
156	0xbd754b3e	-0.05988621
157	0x858bb426	-1.3137673e-35
158	0xbce53223	-0.027978009
159	0xbcc422d1	-0.023942383
160	0xbd1221d2	-0.035676785
161	0x3d3b8536	0.045781337
162	0xbcbe82c0	-0.023255706
163	0xbd8498bf	-0.064744465
164	0x3ca2ae0b	0.01985838
165	0x3d033acc	0.032038495
166	0xbc53ee21	-0.012935192
167	0x3cee321c	0.029076628
168	0x3c1ac166	0.009445524
169	0x3d5c1775	0.053733308
170	0xbc8d7b35	-0.017270664
171	0x3b56d770	0.003278222
172	0xbd1fa947	-0.038979795
173	0x3d8f300c	0.06991586
174	0xbc583c9d	-0.013198045
175	0x3d12063d	0.03565048
176	0xbc9cc976	-0.019139033
177	0x3d46055d	0.04834496
178	0x84d54061	-5.0135182e-36
179	0xbd50cf1c	-0.050978765
180	0xbdd57ae4	-0.1042383
181	0x3c724b78	0.014788501
182	0x3b24c97c	0.0025144508
183	0xbc062035	-0.00818639
184	0x3d721d98	0.059110254
185	0x3b6701c0	0.0035248846
186	0xbdde0a10	-0.10841763
187	0x8500778a	-6.040487e-36
188	0xbb338720	-0.0027393773
189	0x04fec2c0	5.9893963e-36
190	0x3c15a687	0.0091339415
191	0xbd939cb9	-0.07207627
192	0xbdd51036	-0.104034826
193	0xbdb7fa2e	-0.08983265
194	0xbd0b0531	-0.033940498
195	0xbdd38502	-0.103281036
196	0xbdd5e0c1	-0.10443259
197	0xbda6a9a3	-0.081378244
198	0x3c8dcb19	0.017308759
199	0x3cc77cf0	0.024351567
200	0x3b9ae8f4	0.004727477
201	0x3ca1c66f	0.01974794
202	0x3a88d1ae	0.0010438466
203	0x3d5e7100	0.054306984
204	0xbd1df70d	-0.038565684
205	0xbca1d13b	-0.01975309
206	0xbd8f71fd	-0.070041634
207	0x3c00e541	0.007867158
208	0x8557dd75	-1.0149927e-35
209	0x3d44d7dd	0.048057426
210	0x3d4201fc	0.047365174
211	0x3d2874b5	0.041126925
212	0xbd853f78	-0.06506246
213	0x3d734361	0.05939043
214	0xbd5204c5	-0.05127408
215	0x858f6689	-1.3485321e-35
216	0xbd1796b1	-0.037008945
217	0xbd0076a9	-0.031363163
218	0xbbe26ff9	-0.006910321
219	0xbd0046f0	-0.03131765
220	0xbbeac53a	-0.0071646245
221	0xbce4de60	-0.027938068
222	0x3d8871e0	0.06662345
223	0x3bb209a8	0.00543328
224	0x3b833bc0	0.0040049255
225	0x857aab98	-1.178646e-35
226	0xbd4954f9	-0.049153302
227	0xbc5f3c66	-0.01362524
228	0xbd07e34b	-0.033175748
229	0xbcad81d9	-0.02118008
230	0xbd332831	-0.0437395
231	0x3d1dd890	0.03853661
232	0xbd8c9cf0	-0.06865871
233	0xbd1b987e	-0.037987225
234	0xbc0fe026	-0.0087814685
235	0xbb3ac2d5	-0.0028497477
236	0xbd191aa5	-0.037378926
237	0x3abee264	0.0014563319
238	0xbe07b0cc	-0.13251036
239	0xbbe68995	-0.007035444
240	0xbd38f092	-0.0451513
241	0x3d9f9320	0.07791734
242	0xbdaf7c4d	-0.0856863
243	0xbd1a2558	-0.03763327
244	0xbdcfc21d	-0.10144446
245	0x3c94098d	0.01807096
246	0x3e05e3ec	0.13075227
247	0x3d0704ca	0.03296355
248	0xbd28a85f	-0.041176196
249	0xbd9ab1fd	-0.0755348
250	0xbd63ee03	-0.055646908
251	0x3d484e57	0.048902836
252	0x3c6489bb	0.013948853
253	0x386f05f3	5.698758e-05
254	0xbd71dfa6	-0.05905118
255	0xbcb0169e	-0.02149516

val_conv1.bias f4 [2]
0	0x3e30bff3	0.17260723
1	0xbda9ff7a	-0.083006814
